cnn_linearizer.pt (torch, 13646 bytes, 5 tensors)

net.0.weight f4 [16, 1, 5]
-0.11300847 0.13300581 -0.47276947 -0.43130073 -0.27090192 0.123885505 0.0038892154 0.3706562
-0.034741465 0.11725469 -0.3186496 -0.24068005 -0.5571479 -0.41552973 -0.29009023 0.5440023
0.74452895 0.79743516 0.1917167 0.1370665 0.24141051 0.4462173 -0.03547153 0.37163833
-0.057699107 -0.2354685 0.1803309 -0.586183 -0.4088934 -0.1902403 -0.31308123 0.28986692
-0.35629427 -0.23889492 -0.3048278 -0.78766763 -0.3985413 0.50808424 0.44211197 0.57293683
-0.20682041 -0.41047463 -0.06637072 -0.5410993 -0.42480734 -0.13261932 0.650175 0.7081413
0.26833132 0.5161405 0.34986916 0.5081548 0.23098037 0.10184225 0.33046693 -0.46882984
-0.08112991 -0.480351 -0.42543262 -0.32373908 0.20039561 0.19202834 -0.23938593 0.17070375
0.29565388 -0.046187103 0.050099507 0.15197985 0.3351416 0.5014909 -0.46588036 -0.10944433
0.32032466 0.5796855 0.6859469 -0.15759751 -0.34399396 -0.6978279 -0.16068737 -0.35977206
00000000: fc70 e7bd ad32 083e d70e f2be 73d3 dcbe
00000010: a8b3 8abe afb7 fd3d 35e2 7e3b a6c6 bd3e
00000020: 114d 0ebd 3a23 f03d 0a26 a3be d574 76be
00000030: 3fa1 0ebf 50c0 d4be b586 94be bc43 0b3f
00000040: 7399 3e3f b624 4c3f 6251 443e 295b 0c3e
00000050: 5134 773e 9876 e43e 984a 11bd 6147 be3e
00000060: e655 6cbd a81e 71be aaa8 383e 1710 16bf
00000070: 7a5a d1be 5ace 42be 2f4c a0be 7069 943e
00000080: 346c b6be dfa0 74be 6412 9cbe 96a4 49bf
00000090: 9b0d ccbe cf11 023f 805c e23e fdab 123f
000000a0: bbc8 53be bb29 d2be 5fed 87bd 7c85 0abf
000000b0: 5980 d9be 5ccd 07be de71 263f c048 353f
000000c0: b962 893e c921 043f 0d22 b33e 6f16 023f
000000d0: 1e86 6c3e ab92 d03d f632 a93e 770a f0be
000000e0: 7027 a6bd 91f0 f5be 4ed2 d9be 21c1 a5be
000000f0: 8234 4d3e 14a3 443e 9621 75be f7cc 2e3e
00000100: f25f 973e b02e 3dbd 2435 4d3d 9ba0 1b3e
00000110: ae97 ab3e b561 003f df87 eebe 5924 e0bd
00000120: 9801 a43e 4566 143f 379a 2f3f 3e61 21be
00000130: fa1f b0be d9a4 32bf 3b8b 24be 0b34 b8be

net.0.bias f4 [16]
-0.29257947 0.5289765 0.5191663 -0.16782863 0.15334865 0.29447252 0.19580397 0.4277182
0.38226172 0.45486662 0.29070073 0.44602662 0.4930658 0.36151353 0.13466068 0.38278943
00000000: facc 95be 016b 073f 15e8 043f 45db 2bbe
00000010: 6e07 1d3e 1ac5 963e d680 483e e1fd da3e
00000020: cfb7 c33e 47e4 e83e bad6 943e 9a5d e43e
00000030: 1f73 fc3e 4d18 b93e 7de4 093e fafc c33e

net.2.weight f4 [32, 16, 5]
0.055825114 0.023400603 -0.08721604 -0.064378574 0.10517897 0.065477766 -0.05847475 -0.03783799
-0.1065037 -0.0020095697 -0.08419455 -0.08624078 -0.0061966856 0.016786728 -0.045786876 0.05822231
-0.07648551 0.09251914 0.07661886 -0.0942819 -0.037597697 -0.0047040964 0.007028458 0.02651689
0.043874815 0.006697042 -0.054553244 0.05288175 -0.107247286 -0.06626662 -0.027987728 -0.054461267
-0.0391193 -0.09163649 -0.023782276 0.01677905 -0.07294998 -0.005740009 0.080034554 -0.011493417
0.0031072642 -0.009645573 0.022602802 0.071089014 0.10590534 0.06196858 0.097484566 -0.016916217
-0.1004354 -0.053003445 0.06600918 -0.010667396 -0.065405004 -0.08567626 -0.10463144 -0.09436298
-0.022677923 0.061294105 0.06044551 -0.10782676 0.05996602 -0.09697967 -0.032823175 -0.045333218
-0.02153504 -0.031771712 -0.10965318 -0.10510048 -0.017494937 0.0014458618 -0.058631387 0.042110525
-0.10062958 -0.0075453026 0.09832208 -0.04560371 0.10095882 0.04047831 -0.1008982 0.07073771
0.076238446 0.027241038 0.16173969 -0.016194321 0.092382066 0.109285586 0.14134611 0.049315542
0.0638264 0.03922547 0.1112308 0.05196942 -0.03767497 0.124937795 0.16126049 0.4427543
0.3954347 0.68217146 0.5838689 0.19867843 0.025667487 0.09644983 -0.025261952 0.029150406
0.017224375 0.24352087 0.01705102 0.012745914 0.02502375 0.17194025 0.045143846 0.15830131
0.09985109 0.07498611 0.06394644 0.60951596 0.36229655 0.013734432 -0.23405474 -0.2577726
0.045177516 0.025978992 0.1600408 -0.015924787 0.06995589 0.6294267 0.43398505 0.4430524
-0.06881485 -0.1871276 0.012567894 0.022473058 -0.004376152 0.0067181364 0.0071827923 0.22831847
0.09451301 0.1652699 0.13927229 0.0041360036 0.18651667 -0.026549688 -0.03788772 0.03750575
0.029953806 0.20573051 0.021192716 0.013090378 0.05257858 -0.13036062 0.28953156 0.119197495
0.19868334 0.042584736 -0.14604451 0.7507018 0.38777655 0.19048402 0.16336064 0.20319058
-0.12875299 0.033317693 -0.07065359 -0.09193431 -0.08277219 0.015434544 0.036943562 0.08675776
0.044483263 -0.029257696 -0.08562912 0.013372308 0.090427324 0.019607143 -0.07116014 -0.6202031
-0.8121315 -0.5938141 -0.5008973 0.30616063 0.06550392 -0.095182985 -0.027869092 0.019504283
-0.0010215802 -0.15198842 -0.11051454 0.07715612 -0.0013576811 0.070524335 -0.06619925 0.013305771
-0.04402608 -0.024054077 -0.08810919 -0.50079334 -0.18195677 0.22031175 0.37142166 0.3870103
0.026349096 -0.10567984 0.03506967 -0.055630114 -0.07559043 -1.6125917 -0.5058636 -0.14124624
0.5400318 0.5260709 -0.015208141 0.025426019 0.031757414 -0.023252774 -0.093554296 -0.07053276
0.017290112 -0.04856021 0.026665034 0.05409507 -0.109415784 -0.018308649 0.05167606 0.01586114
0.021274898 -0.033007473 -0.11184251 0.007675906 0.08451026 0.116803885 -0.101192035 -0.13878046
-0.055838916 0.054678593 0.19854741 -1.0634894 -0.05957242 0.7243308 0.18820666 0.049441706
0.19686106 0.20631185 0.18493398 0.17629236 0.0728349 0.14118871 0.15946615 0.05930941
-0.083771154 0.06723473 0.26146165 0.16218479 -0.006353553 0.11397602 0.05637255 0.4533662
00000000: e0a8 643d 9fb2 bf3c 539e b2bd ead8 83bd
00000010: 1268 d73d 3519 863d 3883 6fbd 02fc 1abd
00000020: 9d1e dabd fcb2 03bb 316e acbd 029f b0bd
00000030: 910d cbbb 5284 893c 058b 3bbd 847a 6e3d
00000040: 6fa4 9cbd ad7a bd3d 59ea 9c3d de16 c1bd
00000050: 0b00 1abd d224 9abb fb4e e63b f339 d93c
00000060: 14b6 333d dc72 db3b 3973 5fbd 899a 583d
00000070: 77a4 dbbd cbb6 87bd 8546 e5bc c712 5fbd
00000080: 8f3b 20bd e9ab bbbd 0cd3 c2bc 3874 893c
00000090: cd66 95bd af16 bcbb 28e9 a33d e34e 3cbc
000000a0: 3ea3 4b3b 7708 1ebc 8329 b93c 1e97 913d
000000b0: e6e4 d83d c4d2 7d3d fda5 c73d e193 8abc
000000c0: 13b1 cdbd 241a 59bd d22f 873d 4dc6 2ebc
000000d0: 0ff3 85bd 0977 afbd 0249 d6bd 6141 c1bd
000000e0: 0dc7 b9bc 870f 7b3d b695 773d 47d4 dcbd
000000f0: ee9e 753d 479d c6bd 9871 06bd 53af 39bd
00000100: 416a b0bc 0e23 02bd d991 e0bd ec3e d7bd
00000110: 8b51 8fbc 1283 bd3a 7727 70bd 167c 2c3d
00000120: e216 cebd 963e f7bb 165d c93d f5ca 3abd
00000130: 7fc3 ce3d 96cc 253d b7a3 cebd efde 903d
00000140: e722 9c3d 9928 df3c 179f 253e f4a9 84bc
00000150: cf32 bd3d 1fd1 df3d 09bd 103e 18ff 493d
00000160: 6ab7 823d e3aa 203d f9cc e33d e3dd 543d
00000170: 1251 1abd 63df ff3d 7821 253e b1b0 e23e
00000180: 6b76 ca3e caa2 2e3f 6f78 153f 5c72 4b3e
00000190: 9f44 d23c 7d87 c53d 27f2 cebc d5cc ee3c
000001a0: 221a 8d3c 895d 793e 95ae 8b3c 3dd4 503c
000001b0: 9bfe cc3c 1b11 303e c1e8 383d bd19 223e
000001c0: ba7e cc3d 5192 993d 5af6 823d 3d09 1c3f
000001d0: ef7e b93e 6206 613c 0cac 6fbe c5fa 83be
000001e0: 0f0c 393d e5d1 d43c bce1 233e b374 82bc
000001f0: 0945 8f3d 1c22 213f 4a33 de3e c4d7 e23e
00000200: cdee 8cbd 619e 3fbe 91e9 4d3c 6b19 b83c
00000210: d365 8fbb d023 dc3b a15d eb3b 51cc 693e
00000220: 0990 c13d 833c 293e 659d 0e3e 5087 873b
00000230: 3afe 3e3e bb7e d9bc 2730 1bbd a19f 193d
00000240: af61 f53c 05ab 523e 599c ad3c 0679 563c
00000250: a35c 573d 417d 05be 7b3d 943e d11d f43d
00000260: a573 4b3e 556d 2e3d b18c 15be fe2d 403f
00000270: a68a c63e 3e0e 433e 0348 273e 3111 503e
00000280: d3d7 03be 2278 083d d4b2 90bd 0e48 bcbd
00000290: 7784 a9bd 2be1 7c3c 2252 173d 0dae b13d
000002a0: 1534 363d d6ad efbc 525e afbd 8617 5b3c
000002b0: f631 b93d 299f a03c 68bc 91bd a1c5 1ebf
000002c0: dae7 4fbf 3304 18bf ce3a 00bf 16c1 9c3e
000002d0: eb26 863d 4cef c2bd b94d e4bc 72c7 9f3c
000002e0: 8be6 85ba daa2 1bbe 7255 e2bd 0704 9e3d
000002f0: 38f4 b1ba 106f 903d 7993 87bd 7300 5a3c
00000300: b154 34bd 0e0d c5bc 9772 b4bd fe33 00bf
00000310: e052 3abe 6799 613e fb2a be3e 3726 c63e
00000320: 0fda d73c ac6e d8bd 37a5 0f3d 67dc 63bd
00000330: 28cf 9abd 6869 cebf 4780 01bf dba2 10be
00000340: 863f 0a3f 95ac 063f 912b 79bc 3a4a d03c
00000350: 1014 023d 9a7c bebc 6599 bfbd 7b73 90bd
00000360: fea3 8d3c 12e7 46bd a170 da3c cb92 5d3d
00000370: 6215 e0bd 05fc 95bc 47aa 533d 39ef 813c
00000380: b248 ae3c d832 07bd b00d e5bd 2b86 fb3b
00000390: b713 ad3d e036 ef3d c53d cfbd 771c 0ebe
000003a0: 59b7 64bd a9f6 5f3d 0350 4b3e 6c20 88bf
000003b0: 3602 74bd be6d 393f 3fb9 403e 6383 4a3d
000003c0: f295 493e 6a43 533e 555f 3d3e fc85 343e
000003d0: 772a 953d c693 103e 184b 233e 6dee 723d
000003e0: 3690 abbd 5db2 893d 4dde 853e c513 263e
000003f0: 7731 d0bb 426c e93d e7e6 663d 9d1f e83e

net.2.bias f4 [32]
-0.029750025 -0.0183481 0.07107552 0.10864767 -0.40234092 0.34441513 0.045167744 0.029055988
-0.023520883 0.112516895 0.3810971 -0.027886488 -0.008256072 0.0556812 -0.002949547 0.019951014
0.062675685 0.04773956 -0.07547686 0.006371461 0.04671162 -0.008102035 0.01670712 0.11224897
-0.06588323 -0.07742479 -0.02111984 0.12483175 -0.081095435 0.031102166 -0.06950158 0.024149869
00000000: 53b6 f3bc c14e 96bc 0b90 913d ab82 de3d
00000010: a1ff cdbe 2e57 b03e d001 393d d306 ee3c
00000020: deae c0bc 426f e63d 291f c33e 3472 e4bc
00000030: 7a44 07bc f811 643d 304d 41bb 4f70 a33c
00000040: 1c5c 803d 8f8a 433d 9d93 9abd b0c7 d03b
00000050: af54 3f3d 66be 04bc 5fdd 883c cae2 e53d
00000060: c9ed 86bd e390 9ebd 8403 adbc caa7 ff3d
00000070: 5d15 a6bd f8c9 fe3c d856 8ebd f2d5 c53c

net.4.weight f4 [1, 32, 1]
0.064459056 -0.17028773 0.24384034 -0.09670408 -1.0310458 0.69667685 0.06618465 -0.104244605
0.12942003 -0.20681904 1.2224916 0.100380115 0.08780343 -0.14779441 0.02333318 -0.21508375
-0.29575887 -0.1228566 -0.20734829 0.11355749 0.11070123 0.1021344 -0.16430832 -0.22190936
-0.31731385 0.042482816 -0.2859947 -0.26700187 -0.20736176 -0.3698278 -0.2523987 -0.20149751
00000000: 1c03 843d e85f 2ebe 48b1 793e ca0c c6bd
00000010: 4ff9 83bf 6a59 323f d18b 873d 327e d5bd
00000020: af86 043e 5fc8 53be 9b7a 9c3f 1794 cd3d
00000030: 49d2 b33d 6b57 17be 3a25 bf3c ea3e 5cbe
00000040: b56d 97be 3e9c fbbd 1c53 54be d490 e83d
00000050: 54b7 e23d d72b d13d 7140 28be 353c 63be
00000060: f676 a2be 7602 2e3d e66d 92be 78b4 88be
00000070: a456 54be 125a bdbe 673a 81be 5d55 4ebe
