cnn_linearizer.pt (torch, 13646 bytes, 5 tensors)

net.0.weight f4 [16, 1, 5]
000000 a1 32 df bd 57 be 0b 3e 56 8c f0 be 67 92 db be
       -0.108983286 0.13646828 -0.46982068 -0.42885134
000010 76 c8 89 be a8 58 24 3e fa e5 e9 3c ff 35 c2 3e
       -0.26910752 0.16049445 0.028552044 0.3793182
000020 d7 4a 35 bd d3 f1 ae 3d ae 70 86 be e7 00 51 be
       -0.044260826 0.08542218 -0.26257843 -0.204105
000030 43 c5 0a bf 90 e6 d6 be 64 a9 a1 be 97 dd e2 3e
       -0.5420725 -0.4197278 -0.31574547 0.44309685
000040 24 4c 15 3f 13 16 23 3f 51 dc 2c bd 43 ef 9c bd
       0.58319306 0.6370556 -0.042202298 -0.07662823
000050 00 50 78 3e 63 f1 e3 3e d6 31 13 bd f3 b8 b9 3e
       0.24249268 0.445201 -0.0359362 0.36273918
000060 56 d2 99 bd dc e9 ed bd a4 5a 83 3e 0f c7 0c bf
       -0.075108215 -0.11616871 0.2565509 -0.5499124
000070 e8 ce d0 be 02 e5 6c be b9 5b 60 be 5d ac b2 3e
       -0.40782857 -0.23134235 -0.2190999 0.34897128
000080 80 41 a5 be 78 aa 6e be 7f 1f ab be b7 75 f0 be
       -0.32276535 -0.23307216 -0.33422467 -0.4696481
000090 ad ab 51 be ce 19 02 3f bd c6 b0 3e d2 6d c1 3e
       -0.20475645 0.50820625 0.34526625 0.377791
0000a0 17 c4 00 be c0 14 b8 be ae 4e 30 bd d1 c6 09 bf
       -0.12574802 -0.3595333 -0.043043785 -0.53818995
0000b0 c8 b8 e4 be 66 4f 06 3d 19 8c 1a 3f 5b 6a 12 3f
       -0.44672227 0.032790564 0.6037002 0.57193536
0000c0 30 d3 5b 3d 68 d9 06 3e c8 c8 b7 3e 9b 75 03 3f
       0.0536682 0.13168871 0.3589537 0.51351327
0000d0 06 68 6c 3e 71 e0 b3 3d a1 a5 99 3e 8e 1a cb be
       0.23086557 0.08783043 0.30009177 -0.39668697
0000e0 61 75 12 bd 80 46 eb be 24 45 db be 66 c1 b5 be
       -0.035756472 -0.45952225 -0.42826188 -0.35499114
0000f0 94 ec 76 3e aa 05 63 3e 0f e0 68 be 9b 10 24 3e
       0.24113685 0.2217013 -0.22741722 0.1602196
000100 9c 20 84 3e d4 6e a5 bb 3e 96 96 3d 2d 72 21 3e
       0.2580613 -0.005048612 0.07352875 0.15766211
000110 65 eb a3 3e 68 c2 eb 3e 37 29 86 be aa bb 7b bd
       0.3201553 0.46046758 -0.2620332 -0.061458267
000120 46 d1 8f 3e bb f2 f4 3e 54 e8 ff 3e 0a 6e e7 3d
       0.2808935 0.4784144 0.4998194 0.11300285
000130 d5 80 25 be 8d e6 1c bf 1d f8 21 be 3a 12 ea be
       -0.16162427 -0.6128929 -0.15817304 -0.4571703

net.0.bias f4 [16]
000000 0a 73 98 be 90 2a ee 3e 2a 2e d8 3e 84 da 9c bd
       -0.29775268 0.46516848 0.4222272 -0.07658866
000010 3e 11 ca 3d d1 e2 e5 3d cf 80 c8 ba fa 7c 92 3c
       0.0986657 0.112249024 -0.0015297177 0.01788186
000020 95 58 91 3e 52 90 09 bd 40 52 45 3e c8 04 a6 3e
       0.28387895 -0.0335849 0.19269657 0.32425523
000030 07 cb cf 3e 30 be 71 3e d1 fa 9f be 26 6b 3d 3c
       0.40584585 0.23607707 -0.31246045 0.011561191

net.2.weight f4 [32, 16, 5]
000000 e0 a8 64 3d 9f b2 bf 3c 53 9e b2 bd ea d8 83 bd
       0.055825114 0.023400603 -0.08721604 -0.064378574
000010 12 68 d7 3d b8 49 87 3d 29 58 6c bd b6 bb 17 bd
       0.10517897 0.066058576 -0.057701264 -0.03704425
000020 9d 1e da bd fc b2 03 bb 31 6e ac bd c1 9e b0 bd
       -0.1065037 -0.0020095697 -0.08419455 -0.0862403
000030 89 dc c9 bb 52 84 89 3c 05 8b 3b bd 14 2d 72 3d
       -0.006160323 0.016786728 -0.045786876 0.05912502
000040 9f 91 9a bd 59 a0 bf 3d 59 ea 9c 3d de 16 c1 bd
       -0.07547306 0.09356756 0.07661886 -0.0942819
000050 cf 14 17 bd 12 dd 82 bb e4 5d 07 3c f3 39 d9 3c
       -0.03688508 -0.003993639 0.008262131 0.02651689
000060 14 b6 33 3d dc 72 db 3b 04 72 5f bd 02 b2 58 3d
       0.043874815 0.006697042 -0.054552093 0.052904136
000070 77 a4 db bd cb b6 87 bd 85 46 e5 bc 6c 12 5f bd
       -0.107247286 -0.06626662 -0.027987728 -0.054460928
000080 7e 34 20 bd e9 ab bb bd 0c d3 c2 bc e5 94 9a 3c
       -0.03911256 -0.09163649 -0.023782276 0.018869827
000090 0d 35 95 bd 24 03 bc bb 28 e9 a3 3d e3 4e 3c bc
       -0.07285509 -0.005737679 0.080034554 -0.011493417
0000a0 3e a3 4b 3b b8 06 1e bc 1a 5c b9 3c 1e 97 91 3d
       0.0031072642 -0.009645157 0.022626925 0.071089014
0000b0 e6 e4 d8 3d 23 a3 80 3d 3f f5 c9 3d fa 53 7e bc
       0.10590534 0.06281116 0.0986123 -0.015522951
0000c0 13 b1 cd bd 24 1a 59 bd 2e a7 87 3d f9 84 27 bc
       -0.1004354 -0.053003445 0.06623684 -0.010224574
0000d0 9f ac 84 bd 09 77 af bd 02 49 d6 bd 61 41 c1 bd
       -0.06478237 -0.08567626 -0.10463144 -0.09436298
0000e0 e0 c6 b9 bc 07 24 7b 3d b6 95 77 3d 47 d4 dc bd
       -0.022677839 0.061313655 0.06044551 -0.10782676
0000f0 9f 97 78 3d aa a6 c4 bd 2f 61 01 bd 53 af 39 bd
       0.060691472 -0.09602101 -0.031586822 -0.045333218
000100 41 6a b0 bc 13 b2 fe bc 65 10 de bd 54 82 d3 bd
       -0.02153504 -0.031090772 -0.10842971 -0.103275925
000110 8b 51 8f bc 12 83 bd 3a dd fc 66 bd 0c 81 2c 3d
       -0.017494937 0.0014458618 -0.056393493 0.042115256
000120 e2 16 ce bd 96 3e f7 bb 16 5d c9 3d f5 ca 3a bd
       -0.10062958 -0.0075453026 0.09832208 -0.04560371
000130 7f c3 ce 3d dd d8 25 3d b7 a3 ce bd ef de 90 3d
       0.10095882 0.04049002 -0.1008982 0.07073771
000140 4b f9 97 3d ea a9 d9 3c 25 35 25 3e b4 15 89 bc
       0.07420596 0.02657028 0.16133554 -0.016733982
000150 3b 5c bb 3d e7 10 9d 3d ab c2 14 3e 88 c9 74 3d
       0.09148451 0.076692395 0.14527385 0.059762508
000160 ce f7 97 3d 29 f5 4e 3d 1b 61 9d 3d 92 fe 4f 3d
       0.07420312 0.05052677 0.07684537 0.050779887
000170 d2 72 0a bd d0 08 03 3e 17 25 26 3e 3a b5 cb 3e
       -0.033800907 0.1279633 0.16225086 0.39786702
000180 61 a8 97 3e ec 41 f0 3e 32 26 d1 3e 6d 93 7c 3d
       0.2962065 0.46925294 0.40849453 0.061664034
000190 77 5a 94 3c 8f 79 d1 3d a7 d9 b0 bc 50 7d 03 3d
       0.018109543 0.102282636 -0.02158816 0.03210193
0001a0 79 ce b3 3c c6 40 41 3e b8 58 5c 3c a2 13 4e 3c
       0.02194904 0.18872365 0.013448887 0.012577923
0001b0 97 13 c6 3c 66 15 2e 3e 8a c3 e5 3c e3 91 1e 3e
       0.024179263 0.1700035 0.028047342 0.15485339
0001c0 b9 f1 c9 3d e5 6d 97 3d 36 50 80 3d cb 4d 41 3e
       0.09860558 0.073940076 0.06265299 0.18877332
0001d0 6f d2 6b 3e 75 c1 24 3d 9a 39 19 be fe 47 41 be
       0.23029493 0.040223558 -0.1496338 -0.18875119
0001e0 14 48 61 3c 91 a8 b7 3c eb c7 25 3e c3 16 7b bc
       0.013750095 0.022419246 0.16189544 -0.015325251
0001f0 23 85 8d 3d d4 22 c9 3e 34 77 b9 3e ab c4 b8 3e
       0.069101594 0.39284384 0.36223757 0.36087546
000200 05 3d c2 bc 43 48 0e be 55 d3 b2 3a 6d fc e7 3c
       -0.023710737 -0.13894753 0.0013643304 0.028318608
000210 72 fa 42 3a 63 4e 3b 3c 89 92 63 3c ed 63 47 3e
       0.0007437832 0.011432263 0.013889917 0.19471712
000220 14 b2 bb 3d 59 bc 2a 3e e9 49 10 3e b5 6c 82 3b
       0.09164825 0.16673411 0.14090694 0.003980244
000230 43 fe 19 3e 3c 50 9c bc e6 71 d8 bc 47 62 47 3d
       0.150384 -0.019081227 -0.026421499 0.04867771
000240 0c e5 30 3d b9 74 32 3e ff 40 bb 3c 00 57 a6 3c
       0.043187186 0.17427339 0.022858141 0.020305157
000250 ed ca 7c 3d b2 04 f3 bd d0 3a 2d 3e 96 a3 75 3c
       0.061716963 -0.1186613 0.16916966 0.014992615
000260 a0 1e fc 3d 3f 41 8c 3c eb b2 0c be 7a 21 b7 3e
       0.12310529 0.017120956 -0.13740127 0.35767728
000270 fc 3d b7 3e 52 7b 4b 3e c1 9a 25 3e 43 d7 47 3e
       0.35789478 0.19871262 0.16172315 0.1951571
000280 3e ac 03 be 26 31 08 3d f6 d0 90 bd 0a 62 bc bd
       -0.12858674 0.033249997 -0.07071106 -0.09198387
000290 95 97 a9 bd 4a a4 fd 3c a6 3f 0b 3d 9b 09 9a 3d
       -0.08280865 0.030962128 0.033996247 0.07521363
0002a0 08 a1 04 3d 39 6e 2e bd cb 12 80 bd 2d 13 48 3c
       0.032380134 -0.042585585 -0.062535845 0.012211603
0002b0 53 52 a7 3d be 7c 6c 3c ea b2 95 bd e3 28 94 be
       0.08169999 0.014434038 -0.07309516 -0.28937444
0002c0 c9 33 d2 be 8f 44 8d be 96 1e 96 be 15 0d 08 3e
       -0.41055134 -0.2759137 -0.2932021 0.1328624
0002d0 ea ec 8c 3d 2a 8c c9 bd 8e 5b 03 bd d7 0b 77 3c
       0.06881125 -0.09841187 -0.032069735 0.015078506
0002e0 fa 50 03 bc b7 19 d7 bd aa 88 e5 bd d0 f4 8e 3d
       -0.008014912 -0.105029516 -0.11207707 0.06980288
0002f0 10 a7 52 bb 0e 00 90 3d 09 91 6b bd c3 3b 67 3c
       -0.0032143034 0.070312604 -0.057511363 0.014113369
000300 cb 57 35 bd c2 18 c6 bc 1b 6a b4 bd ba b7 87 bd
       -0.04427318 -0.024181727 -0.088093005 -0.0662684
000310 bf 00 7e bd bd 03 95 3c e5 7c 14 3e 5b 23 36 3e
       -0.06201243 0.01819026 0.14500768 0.17786925
000320 30 ac 43 3d 00 82 d7 bd 36 c0 f2 3c b3 b5 6c bd
       0.047771633 -0.105228424 0.029632669 -0.05779047
000330 d2 6d 9b bd b1 00 b0 be 8a aa c6 be 3c f3 31 be
       -0.07589306 -0.34375528 -0.38801986 -0.17377943
000340 ea 43 8f 3e 7b 1a aa 3e e7 4d 2b bc f1 15 b7 3c
       0.27981502 0.33223328 -0.010455585 0.02234933
000350 7a 67 d6 3c 73 81 f1 bc a1 96 d1 bd 27 7f 43 bd
       0.026172388 -0.029480672 -0.10233808 -0.047728684
000360 d6 c7 8d 3c 99 ee 5f bd 56 05 c0 3c 39 f6 59 3d
       0.017307203 -0.054670904 0.023440044 0.05321333
000370 75 6d bc bd 8a 7d bc bc 32 78 1c 3d b6 f5 10 3b
       -0.09200565 -0.02300908 0.038200565 0.0022119111
000380 3e 6f bf 3b 6a 17 96 bc 5e 3d e8 bd 6d 66 1f bb
       0.0058421185 -0.018321712 -0.1133983 -0.0024322525
000390 d7 aa 92 3d 9b f8 cd 3d c0 10 12 3d 07 ce df bc
       0.07161491 0.10057183 0.035660505 -0.027319921
0003a0 88 8b eb 39 f3 21 4c bd 17 8d 79 3c 5e c0 b0 be
       0.00044926652 -0.049837064 0.015231392 -0.34521765
0003b0 d1 b6 5d bc de eb 32 3d 64 d8 d9 bd 45 6c 75 3c
       -0.013532356 0.04368197 -0.10636976 0.014979427
0003c0 27 6f 46 3e 52 66 52 3e 22 f2 3c 3e cd e4 33 3e
       0.19378339 0.20546845 0.18451741 0.1756775
0003d0 d7 ba 92 3d 91 08 b7 3d da 9e 2a 3e 8a 4d 9c 3d
       0.07164543 0.08937181 0.1666216 0.07631977
0003e0 0a 14 89 bd da fe ae 3d f4 28 4f 3e 06 66 24 3e
       -0.06693275 0.08544703 0.20230466 0.16054544
0003f0 e0 34 0b 3a 42 62 f4 3d 23 4c 6e 3d 0e e6 d0 3e
       0.0005310308 0.11932804 0.05817808 0.40800518

net.2.bias f4 [32]
000000 12 cc ed bc 87 87 16 bc cc f9 71 3d 20 7e fe 3d
       -0.029027972 -0.009187586 0.059076115 0.124264
000010 dc cf a3 bd 1c de 24 3e 4d 02 39 3d ed e6 3a 3d
       -0.079986304 0.16100353 0.04516821 0.045630384
000020 d3 81 c0 bc a2 31 f6 3d 99 eb 03 bc 34 72 e4 bc
       -0.023499405 0.120211855 -0.008051776 -0.027886488
000030 7a 44 07 bc ad 71 92 3d c7 ec 42 bb ea d8 ea 3c
       -0.008256072 0.07150588 -0.002974318 0.028667886
000040 f2 5b 93 3d 76 5e 74 3d 95 78 77 bd ba 94 d1 3b
       0.071952716 0.059660397 -0.06041773 0.0063959034
000050 0d 88 3f 3d 28 61 05 bc 79 9a c3 3c 5b 67 f6 3d
       0.046760608 -0.00814084 0.02387737 0.12031432
000060 2b 97 71 bd 28 7c 9e bd 44 69 69 bc 32 41 06 3e
       -0.058982056 -0.07738525 -0.014246289 0.13110808
000070 90 c7 93 bd 68 17 43 3d 55 9b 74 bd 6f 07 fa 3c
       -0.07215798 0.047629744 -0.05971845 0.030521123

net.4.weight f4 [1, 32, 1]
000000 c5 36 86 3d a8 ef 0b be d5 1f 2c 3e a0 df 9b bd
       0.06553415 -0.1366564 0.16809018 -0.076110125
000010 92 89 1c be 7e 1d 97 3e 85 9d 87 3d 02 77 a3 bd
       -0.15286854 0.29514688 0.06621841 -0.07981683
000020 62 a5 04 3e 40 56 3f be 0f c4 85 3d 17 94 cd 3d
       0.12953714 -0.18685246 0.06531536 0.100380115
000030 49 d2 b3 3d f7 15 dc bd b1 2f bf 3c 54 bf 4f be
       0.08780343 -0.10746377 0.02333817 -0.2028783
000040 36 af 7d be 49 18 c0 bd 0d b8 11 be de 9a e8 3d
       -0.24773869 -0.09379632 -0.14230366 0.113576636
000050 65 b2 e2 3d 1e 1f d1 3d 66 0e 1a be 8b 17 54 be
       0.11069182 0.10211013 -0.15044555 -0.20712106
000060 47 13 8c be 54 0e 2e 3d 97 4b 82 be 64 2a 80 be
       -0.27358457 0.042494133 -0.25448295 -0.2503234
000070 a5 4e 36 be 7e b1 8d be fa 18 4c be 53 33 3d be
       -0.17803438 -0.27674478 -0.19931403 -0.1847661
