cnn_linearizer.pt (torch, 172110 bytes, 6 tensors)

net.1.weight f4 [128, 100]
000000 f6 64 0e 3c 76 be b2 3d a6 1e 48 bd 56 3e 22 bd
       0.008691063 0.08727734 -0.048857354 -0.03961023
000010 93 8b 96 bb 5f 39 79 3d d9 73 02 3d 1f d6 e7 3d
       -0.0045942753 0.06084573 0.031848762 0.11320137
000020 f5 f5 cc 3c 98 12 77 3d 63 37 64 3b 3a 81 67 3c
       0.025019625 0.060320467 0.0034823052 0.014129931
000030 19 57 7d bd f1 ce 05 bd 05 ec f8 bb 72 ed 17 3d
       -0.06185064 -0.032668058 -0.007596495 0.03709168
000040 f8 44 95 3d f0 23 bf 3d 1e f4 0d bd 39 c2 34 bc
       0.07288545 0.093330264 -0.034656636 -0.011032634
000050 89 e3 8c 3d 22 fc ea 3d 50 6f 3a 3c 08 ed d4 3d
       0.068793364 0.11473872 0.011379078 0.103967726
000060 6b 35 06 bb 71 3a 5d bc ce f2 67 3d ef c9 03 be
       -0.0020478617 -0.013502703 0.05662804 -0.1287
000070 7b 58 cc bd ea e5 7f bd cf 26 98 bd b0 68 50 3d
       -0.09977814 -0.062475123 -0.07429277 0.050881088
000080 50 5d cd bd e0 d1 a6 bd 02 d6 d6 bd 5d b1 03 be
       -0.100275636 -0.08145499 -0.104900375 -0.12860627
000090 c9 73 be bd 08 7d 52 3d 3c f8 2b 3c 82 3d 6f 3c
       -0.09299428 0.05138877 0.010496195 0.014602067
0000a0 3d 27 e9 bc be 4c ad bd 58 80 85 bc 15 03 01 be
       -0.028461093 -0.08461903 -0.01629655 -0.12598832
0000b0 75 6b d6 bd 02 41 aa bd ca 3e 06 3d 8b 93 05 3d
       -0.104697146 -0.083131805 0.032774724 0.03261141
0000c0 9d 92 6c bd ac d3 7c 3b fc 58 b2 3d 02 6f 04 3e
       -0.05775701 0.0038578315 0.08708379 0.12932971
0000d0 71 0d 95 3d b0 d1 44 3d 74 f1 d1 3d 6b 40 bb bc
       0.07277954 0.048051536 0.10251132 -0.022857865
0000e0 5c 28 62 3d e4 f1 25 bd 2d 83 03 bd 45 07 85 bc
       0.05521427 -0.040513888 -0.03210752 -0.016238818
0000f0 06 17 a5 3d fe 49 9b 3d 50 cf c2 bc f5 2f 86 3d
       0.08061032 0.07582472 -0.023780495 0.06552116
000100 00 bb b7 3d f9 b3 b0 3c b2 84 18 3d be a0 65 3d
       0.08971214 0.021570193 0.037235923 0.0560615
000110 eb f8 c0 3d fc a0 01 3e 02 31 4b bd af 7d 6c bc
       0.09422477 0.12659067 -0.049607284 -0.014434262
000120 5e f8 55 3d e7 43 a9 3d 62 14 99 3d 0f 91 8b 3d
       0.052238815 0.082649045 0.07474591 0.06814777
000130 50 b7 af bb e6 f5 eb bd a0 97 ac bc a3 cf c0 bd
       -0.0053624287 -0.11521511 -0.021068394 -0.094146036
000140 21 0b 01 be 68 7f 62 3d 50 08 2c 3d 54 bf 09 be
       -0.12601902 0.055297285 0.042000115 -0.13451892
000150 1d 10 86 bc 77 81 55 bd b9 ea 54 bd 1c 59 a7 bd
       -0.016365105 -0.05212542 -0.05198166 -0.08171293
000160 64 e9 88 3b fe 01 bf bd 04 61 3a 3b c8 18 93 3c
       0.004178213 -0.09326552 0.0028439173 0.017956153
000170 bf 39 26 3d 97 82 0c 3c 14 2a fd bd 6e ca aa bd
       0.040582415 0.008576057 -0.123615414 -0.08339392
000180 59 c8 24 3d c0 51 9a 3c b1 81 97 bd 6e 3b 42 bd
       0.04023013 0.01883781 -0.073977835 -0.047419958
000190 89 a9 c6 3d 38 d4 cc 3d 4a f5 29 bc 7b 9f fb 3b
       0.09700305 0.10001415 -0.010373423 0.0076789237
0001a0 da e8 7f bd 39 5f ff 3c 36 e0 2c bd a3 fd 33 bd
       -0.062477924 0.031173335 -0.04220601 -0.04394306
0001b0 ad ef e2 3c 18 ef 45 3d fc 25 f2 bb 62 73 be 3d
       0.027702177 0.04832372 -0.007389782 0.09299351
0001c0 07 61 dd bc a9 d7 ff 3d 91 e4 d2 3d 2e 8b 4a bd
       -0.027023805 0.12492306 0.10297502 -0.04944914
0001d0 48 7b 2e 3c 9e 9c 27 3d f0 6d 56 3d 8d 68 83 3d
       0.01064951 0.040920846 0.05235094 0.06416426
0001e0 7c cc a8 3d 62 22 4a 3d 8a a1 c5 bb 87 c2 b3 3d
       0.08242127 0.049349196 -0.00603122 0.087773375
0001f0 55 ea 73 bd 05 86 ef bc fb be 6c bb 67 68 13 bd
       -0.05954965 -0.02923871 -0.0036124575 -0.035988238
000200 48 be f3 bc 8e ce a3 bd 95 e5 af bc 93 d2 aa 3c
       -0.02975382 -0.079983816 -0.021471778 0.020852363
000210 e4 e2 82 bd b0 de d5 ba d4 bc a4 3d fd 9b 7a 3b
       -0.06390932 -0.0016316976 0.080438286 0.003823995
000220 07 90 d1 3c f5 95 95 3c ec 48 37 3d 01 17 b7 3d
       0.025581373 0.018259982 0.044747278 0.089399345
000230 b6 4b f4 3d b2 d0 ac 3d 10 06 e8 3d fe e7 07 3c
       0.11928503 0.08438243 0.11329281 0.008295057
000240 5e bc a2 bd c0 ec 3d bd 65 2e 71 3d f2 cd b6 bc
       -0.079460844 -0.04636836 0.058882136 -0.022315
000250 9e 06 a5 bd 88 b7 e6 bd 86 19 07 be 57 7a ff bd
       -0.08057903 -0.112654746 -0.1319333 -0.12474506
000260 4a a1 7b bd 8a dc 56 3c ad fa 47 3c 50 87 0d be
       -0.061433114 0.013114104 0.012205762 -0.13821149
000270 59 84 c1 3c ae 05 ed bd 3c 72 6a bd b3 18 9b bd
       0.023622679 -0.11573349 -0.05723785 -0.075730704
000280 25 75 5c bd 8a a4 5a bd e0 ba fb bd 65 9b f3 bd
       -0.053822655 -0.053379573 -0.12291503 -0.118948735
000290 72 ff 42 bd 84 c3 f4 bc 48 f8 9a bd d7 9f 17 3c
       -0.047606893 -0.029878385 -0.07566887 0.009254417
0002a0 0f 8a ee bd 6d 00 ea bc dd f5 9c 3d 24 97 14 bd
       -0.11647426 -0.028564656 0.07664082 -0.03627695
0002b0 e4 06 e0 3d 0d 13 81 3d d8 18 75 bd d4 01 c4 3d
       0.10938814 0.06302462 -0.059838146 0.09570661
0002c0 27 98 93 3c 84 57 7b bc 5d d1 de 3d fe 42 57 bd
       0.018016888 -0.01534069 0.108797766 -0.052554123
0002d0 48 95 1e 3d be c4 d8 3b 09 71 c9 3d e2 3b 5e 3d
       0.038716584 0.0066152504 0.09836013 0.054256327
0002e0 c8 fc 96 3d a1 e8 75 3d cb 3a f0 b9 72 7b a6 3a
       0.07372433 0.060036305 -0.0004582017 0.0012701584
0002f0 19 15 7d bd 30 27 94 3d cd 6e bd 3d ec 44 9a 3d
       -0.0617877 0.07234037 0.09249649 0.07532677
000300 0d c6 98 bd 7e a6 3e bc 76 cf c2 bd 2a fb a1 bd
       -0.0745965 -0.0116363745 -0.09512226 -0.07909234
000310 0b 9f ac bd e4 af 11 3c 5b 24 aa bd fd ca c3 bc
       -0.084287725 0.008892033 -0.083077155 -0.023900503
000320 0f 66 dd 3b 72 c5 d4 3d 11 9a 12 bd 35 fb ec bc
       0.006756551 0.10389222 -0.03579146 -0.028928379
000330 d8 4f 96 bc f7 c7 e0 3d ab dc 79 3b eb 1b fe 3d
       -0.01834862 0.1097564 0.0038125913 0.12407669
000340 29 71 9b 3d 47 b6 56 3d af f7 1f 3d c7 72 a4 3c
       0.07589943 0.052419927 0.03905457 0.020074261
000350 8a 87 56 3d f3 fa 8b 3c 1f 85 20 3d 58 bf 57 3d
       0.052375354 0.017087435 0.039189454 0.052672714
000360 ac bd 1c bd 39 a1 4b bc 30 09 f7 3d af bc 29 bd
       -0.038266823 -0.012428575 0.12062299 -0.04143971
000370 07 ba 00 3d dc 2c 0a 3e 30 bc 8d 3d 15 b7 ff 3c
       0.03142741 0.13493675 0.069206595 0.03121523
000380 bf 48 83 bd 99 25 84 3d d6 da 89 bd 19 17 0d bd
       -0.064103596 0.06452484 -0.06731193 -0.034445856
000390 bd fa 43 bd 67 57 05 bd da 0c 97 bc ef 31 80 3d
       -0.047846545 -0.032554056 -0.018438745 0.06259524
0003a0 a1 60 dc bb 48 69 97 3d 10 1b 52 3d 79 1e 87 bd
       -0.0067253863 0.07393128 0.05129534 -0.06597609
0003b0 4b 3f 47 3d a8 a4 72 bd 7c cd cd bc 41 d9 55 3d
       0.048644345 -0.05923906 -0.025122397 0.052209143
0003c0 34 a4 73 3d 72 7b d0 3d 01 c9 b8 bb a7 f6 d2 3c
       0.05948277 0.10179795 -0.005639196 0.025752379
0003d0 db b1 9a 3d a5 48 a0 bd 6f ec ac 3d e5 c6 a5 bd
       0.075534545 -0.07826356 0.08443534 -0.08094577
0003e0 fc b7 29 bc 94 29 20 bd d7 db b0 bd 9e 9e c4 bc
       -0.010358807 -0.039102152 -0.08635681 -0.024001416
0003f0 f5 49 35 3d f1 8a 8c bd ab df ca bd a3 5f 9d bd
       0.044259984 -0.068624385 -0.099059425 -0.07684257

net.1.bias f4 [128]
000000 20 68 c1 3c 86 5b 50 bd 44 b3 08 3e 3a 84 1c bd
       0.023609221 -0.050868534 0.13349634 -0.03821204
000010 26 7f f7 3d 1e 46 10 3d 94 c9 1d bd f2 7f 20 bd
       0.120847985 0.03522312 -0.038522318 -0.03918452
000020 53 80 a4 3a e1 95 09 3e 19 67 03 3e 93 ee a5 3d
       0.0012550451 0.1343608 0.12832297 0.08102145
000030 20 f4 04 3e ec 54 c5 3d ec 23 62 3d 20 e2 03 3e
       0.12983751 0.09635338 0.05521004 0.12879229
000040 23 72 c3 3d 68 52 45 3d 91 e1 9c 3d 93 36 41 3d
       0.09543254 0.04817429 0.07660211 0.047171187
000050 a8 b4 18 bb bd 5d a8 3d 3b b8 ae 3d 6e c8 ca 3d
       -0.002330104 0.08221004 0.08531233 0.0990151
000060 e1 e8 59 3e 42 69 fa 3d bb b0 97 3c 25 e3 2d bd
       0.21280243 0.122271076 0.018516889 -0.04245295
000070 6d 1f 91 3d a0 df ae 3d 10 c2 48 bd dc 7d 92 bd
       0.07086072 0.08538747 -0.049013197 -0.07152912
000080 0d 3c 53 bd fc ec a4 bd fa e3 08 3e 0b 96 ad 3d
       -0.05157094 -0.08053014 0.13368216 0.08475884
000090 a9 27 41 bc 6a 5c 0b bd b5 6d 5a 3d 12 09 2e 3d
       -0.011789241 -0.03402368 0.05332728 0.04248912
0000a0 41 e7 15 3d ab 8f d9 bc 8d 3f 07 3e 8a dc 5f 3d
       0.036597494 -0.026557764 0.13207836 0.05465368
0000b0 d8 e8 26 bd c8 41 c4 3d 51 c6 97 3c 33 6d fa bc
       -0.0407494 0.09582859 0.018527182 -0.030569648
0000c0 8c 40 08 bd fa f1 7f bc 21 31 8e bc 1b 45 57 bd
       -0.03326468 -0.015621657 -0.01735741 -0.05255614
0000d0 a5 be 7a 3d 08 14 0d 3d 60 07 b6 bc 0b 9c 32 3d
       0.06121697 0.03444293 -0.022220314 0.043605845
0000e0 65 4d d4 bd e8 57 f6 3d 7f 2a 57 bd 1e cb 93 bc
       -0.10366324 0.120284855 -0.05253076 -0.01804119
0000f0 ab bb e2 bc 01 be 8c bd ab 3d 3f bd ec de 20 bd
       -0.027677378 -0.06872178 -0.04668967 -0.039275095
000100 2c 8e b3 bc 21 69 30 3c 9c 0c c3 3d 69 f9 02 bd
       -0.021918379 0.010767252 0.095238894 -0.031976137
000110 58 25 aa 3d 37 aa 89 bb 1b c4 e7 3d 77 7d 68 3c
       0.08307904 -0.0042011994 0.11316701 0.014190069
000120 92 01 87 3d c5 29 3b 3d b3 39 20 bb 33 b3 3e 3d
       0.065920964 0.04569413 -0.0024448454 0.046557616
000130 9a 7c b3 3d c2 81 cc 3d b3 b9 7f 3d 9d 04 b4 3d
       0.08764 0.09985687 0.062432956 0.087899424
000140 19 46 83 3d 3f ac f0 3d 40 3d ab bd 34 8e e3 bb
       0.064098544 0.11751603 -0.08361292 -0.006944442
000150 61 3a 0e 3d 9c 7e c1 3d 60 9d 6d bd 96 a7 a5 3d
       0.034723643 0.09447977 -0.058011413 0.08088605
000160 43 cf 0a 3e e6 77 c4 3d eb ae 04 3e 1e 63 71 3b
       0.13555627 0.09593181 0.12957351 0.003683276
000170 92 dd 3f 3d 26 b2 f7 3d d3 3b c9 bc 5c 4d a6 3c
       0.046842165 0.12094526 -0.02456466 0.02030056
000180 7d 95 4a bd 1a 0b e1 3d 1b 8c 33 3d 39 e3 77 bd
       -0.04945897 0.109884456 0.043834787 -0.06051943
000190 e6 88 e6 3d 54 e3 f7 3d a2 93 06 3d ec dc 04 3e
       0.1125658 0.12103906 0.032855637 0.129749
0001a0 0f 9c 58 bd 56 03 2f 3d fb 70 53 3d a3 51 83 3d
       -0.052883204 0.04272779 0.05162142 0.06412055
0001b0 8b 15 ba 3d 82 99 a6 3c 47 d5 07 3e 9b 4c 20 bc
       0.0908614 0.02033687 0.13264953 -0.009783889
0001c0 7e 98 5e 3d ea 64 9c 3d 9e fe 1a bd 1a b0 35 ba
       0.054344647 0.07636435 -0.037840478 -0.0006930843
0001d0 bd 47 4c bd e0 ad 4e 3b a2 ee b1 bc c7 23 de 3d
       -0.049873102 0.0031536743 -0.021720234 0.10846668
0001e0 c2 79 1e bc 5d 13 6d 3d 26 32 e3 bb 9c 09 d1 3d
       -0.009672584 0.057879794 -0.0069334684 0.10206911
0001f0 a8 c7 05 bc da 1b e8 bc bf be 11 bc 99 e1 0a bd
       -0.008165278 -0.028333593 -0.008895575 -0.033906553

net.3.weight f4 [128, 128]
000000 fa db 9d 3c 0f 83 91 3d b6 f0 aa 3c 54 fa 88 3c
       0.019269932 0.071050756 0.020866733 0.016720928
000010 d8 ab a1 bd 0d 78 2d ba 15 2f 00 3d 67 64 23 bc
       -0.07894105 -0.0006617315 0.0312949 -0.009972668
000020 61 f3 bf bd 66 76 84 bd 76 77 c2 bd 39 7d 70 3c
       -0.09372593 -0.06467895 -0.094954416 0.014678293
000030 58 2e 94 3c 12 0e 1f 3d 4e 75 42 3d 85 7f 85 bd
       0.018088505 0.038831778 0.04747515 -0.06518463
000040 d5 6f 61 3c 02 7e 9f 3d f6 18 4a bd 66 90 c2 bd
       0.013759573 0.07787706 -0.04934021 -0.09500198
000050 ec 7b 21 bd 48 51 3c bd 26 84 53 3d ef 57 6e 3d
       -0.03942482 -0.045975953 0.0516397 0.05818933
000060 34 f2 a8 3d bb 8a 57 3d ea 49 b1 3b 8e e8 56 bd
       0.082493216 0.052622538 0.0054104226 -0.052467875
000070 1e 86 18 3c d2 19 c4 bc 09 39 45 bd 5f 68 a6 bd
       0.00930932 -0.023938093 -0.048150096 -0.08125376
000080 14 f2 8d 3d f4 d7 b4 bd 32 8e 00 bd 33 3b 76 3c
       0.06930938 -0.08830252 -0.031385608 0.015028763
000090 62 7c 75 bd f1 21 fb bc a6 d3 a7 bd cb 39 17 3c
       -0.059933074 -0.030655833 -0.081946656 0.0092300875
0000a0 c5 e1 93 3d 15 84 ae 3c f2 13 b4 bc f8 7c 5a 3d
       0.072207965 0.021303216 -0.021982167 0.053341836
0000b0 fa a5 79 3d be 4b 85 3d b8 08 20 bd e0 43 ad 3c
       0.060949303 0.06508587 -0.039070815 0.02115053
0000c0 98 06 2a 3c 3f 44 a2 3c b7 be 53 3d dd 9d 2d bd
       0.010377549 0.019807933 0.05169555 -0.04238688
0000d0 0a 48 8e bd 57 18 d4 3c 54 15 f6 3b 24 11 53 bd
       -0.06947334 0.025890512 0.0075098667 -0.05153002
0000e0 81 01 67 3d c6 03 a4 bc 35 3d 85 3d fa 48 91 bd
       0.05639792 -0.02002133 0.06505815 -0.07093997
0000f0 5d 20 1b bd cb f5 03 3d e7 cf 5f bd ea ce 18 bb
       -0.03787266 0.03221683 -0.05464163 -0.002331669
000100 ee a9 0f bd 98 4d 61 3d 11 62 b0 bd db 7f 9e bd
       -0.035074167 0.05500564 -0.08612455 -0.0773923
000110 ba bc a4 bd b0 35 81 3b 57 79 24 bc 8c 3c 5d bd
       -0.08043809 0.0039431676 -0.010038695 -0.05401282
000120 f7 73 85 bd dd a0 24 3d a7 99 89 bd b5 69 88 bd
       -0.06516259 0.040192474 -0.0671876 -0.06660787
000130 a7 cb ad bc 1e 55 ca bd e1 80 1b bd 49 d9 9a 3b
       -0.021215273 -0.09879516 -0.037964705 0.0047256094
000140 1f 6c 14 3d f7 ef b3 bb 0a fe 9b 3d ae b9 dc bc
       0.036235925 -0.0054912525 0.076168135 -0.026944008
000150 9b 94 db 3c c6 16 87 bd 85 fa b8 bc 9e 04 77 3d
       0.026804259 -0.065961406 -0.022580395 0.060307138
000160 c5 d8 53 3d 71 c4 94 bc 81 8a 5f bd 12 c8 10 bd
       0.0517204 -0.018160077 -0.054575447 -0.035347052
000170 e1 ce a6 bd 81 4d 02 3d 53 2f 9c 3d f2 ae ca bc
       -0.08144928 0.031812195 0.07626214 -0.024741624
000180 09 8e 53 bd 2c 1b 99 3d ab 4d 28 bd 83 5f da bc
       -0.051649127 0.07475886 -0.041089695 -0.026656872
000190 f2 b9 8f bd 68 91 6c 3d 57 e9 71 3c 41 33 c4 bd
       -0.07017888 0.057755858 0.014765105 -0.095800884
0001a0 1e 97 9c 3d 6b 34 3b 3d 60 1b bd 3c c5 f2 9e 3d
       0.07646011 0.045704287 0.023084342 0.07761148
0001b0 9d 8c 48 3c fa 5a 47 bd 11 8b 37 bd b6 39 f6 3c
       0.012240556 -0.048670746 -0.04481036 0.030056816
0001c0 a2 77 75 bd 2f 85 43 3d a0 4f 4a bd 32 03 85 3d
       -0.059928544 0.047734436 -0.049392343 0.0649475
0001d0 f5 a5 cf bc 97 fd 6f 3d 8a 81 6a bd e0 d4 a2 3c
       -0.02534769 0.05859145 -0.057252444 0.019876897
0001e0 13 ba 49 3d 36 c6 0c 3c ae 1f a1 bc ff 58 7b bd
       0.04924972 0.008592179 -0.019668426 -0.06136417
0001f0 b4 fa 28 bd 3b 68 dc 3c b1 62 85 3d df 6d 65 bd
       -0.041254714 0.02690517 0.065129645 -0.056012984
000200 34 0a 0a bc 58 4a 9c bc a0 52 2f 3d 0d 78 5b bb
       -0.008425284 -0.019078419 0.042803407 -0.0033488304
000210 5b 97 83 3d 65 5d 5f 3b 23 8d 30 3c f3 98 e6 3d
       0.06425353 0.0034082767 0.010775837 0.112596415
000220 59 6f 30 bc 72 90 2a bd 1a d5 3b 3d 39 0f 0c bd
       -0.010768735 -0.04164166 0.045857526 -0.034194205
000230 cc c7 d3 3b 13 e1 14 bd 4f 09 e8 bc f8 87 30 3d
       0.0064630266 -0.03634746 -0.028324751 0.04309842
000240 f5 84 9d 3d fe 8a 6d 3c 74 24 5e bd a6 98 19 bd
       0.07691375 0.01449847 -0.054233983 -0.037499093
000250 34 60 f8 3c 4e 10 a3 3d 03 43 50 3c ad 8e 94 3d
       0.03031931 0.07962094 0.012711289 0.07253776
000260 ec c3 01 3f ec de e5 3d 7b 3b 3f 3d e5 a6 27 3c
       0.5068958 0.112241596 0.046687584 0.010232662
000270 52 12 41 bc 16 4f e4 3c ab 7a dd 3d 4b 69 61 3d
       -0.011784153 0.027869742 0.10814413 0.055032056
000280 7c 89 ae bc c4 40 c2 3d 35 08 ab 3d 4d e1 61 bc
       -0.021305792 0.09485009 0.08351175 -0.013786626
000290 b5 d1 1c 3d 1a 45 83 3d 9b 6e 99 3d da 50 dd 3c
       0.03828593 0.064096645 0.074917994 0.027016092
0002a0 0d 77 fc 3c ea bc b2 3d f7 9b 17 3d 66 13 d4 bb
       0.030818487 0.08727439 0.037013974 -0.006472039
0002b0 10 25 c9 3d 15 a1 c7 3d ae f8 de b8 d1 3e 36 bd
       0.09821522 0.09747521 -0.00010632105 -0.0444935
0002c0 9b 71 09 bc 3e bb 82 bd 3c 56 91 3c 61 b0 21 bd
       -0.008388902 -0.0638337 0.017741315 -0.03947485
0002d0 65 6c d2 bc d7 92 79 3d 04 e1 d4 3c 45 fd bd 3c
       -0.025686452 0.060931053 0.025986202 0.023192057
0002e0 3a de ff 3b d2 46 7f 3d 53 f3 c2 3d d4 5b f0 3c
       0.007808474 0.0623234 0.09519067 0.029340662
0002f0 bd 7f a1 bb 8a 84 3f bd 17 19 50 bd 44 9d 7b bc
       -0.0049285577 -0.04675726 -0.050805178 -0.015357319
000300 dc ca a3 3d 2d 13 85 3d 94 3e 86 3d 69 a5 a6 3d
       0.07997677 0.06497798 0.065549046 0.08137018
000310 ef d7 b0 3c 98 fb c8 bc 7f 56 c9 3d 81 5b 4f 3c
       0.02158734 -0.024534032 0.09830951 0.012656094
000320 f1 c4 f9 3c c3 21 3e bc 2d e9 c4 3d dd 11 d3 3d
       0.030489417 -0.011604729 0.09614787 0.103061415
000330 9f 92 d4 bb e3 a9 df 3d c6 32 bd 3d 65 e1 6c 3d
       -0.006487205 0.10921075 0.092382 0.05783214
000340 8d 37 17 bc c0 71 d4 bc bf cd bc 3c 26 80 95 3d
       -0.009229553 -0.025933146 0.023047326 0.07299833
000350 f6 01 ba bc b2 0d d4 3d 1c a2 b8 3d ed ab 11 3d
       -0.022706013 0.10354175 0.09015295 0.03556435
000360 19 0f 5b bd d8 b5 07 bd 5c 49 c5 3d 17 98 2c 3d
       -0.053481195 -0.033132404 0.09633133 0.04213723
000370 5a f3 a5 3c 14 1b ca bc 46 32 94 bb 0b de da 3d
       0.02025764 -0.024671115 -0.0045225946 0.106868826
000380 4f b5 3e 3d 27 95 3a 3d 17 e7 d2 3d 27 61 81 bc
       0.046559628 0.0455524 0.10297983 -0.015793396
000390 b5 64 8b 3b 58 f7 84 3d 06 6a 0d bd 2b 12 e7 3d
       0.0042539486 0.064924896 -0.03452494 0.11282762
0003a0 f5 0d b7 3d a6 83 59 3d 65 4d 11 bd 1c a1 cb 3d
       0.08938209 0.053104065 -0.0354742 0.099428385
0003b0 26 bc 21 3b 9f 06 be bb 5d 39 db 3d 8f d7 69 3c
       0.0024678796 -0.005799129 0.107043006 0.014272585
0003c0 f2 3f f3 3d ff b6 ca 3c d9 3d a4 bc d3 1b 68 3c
       0.11877431 0.024745462 -0.020049023 0.01416679
0003d0 50 f5 34 bd f0 32 b5 3d b0 f5 a0 3d 7f 7f 50 3d
       -0.04417926 0.08847606 0.07859361 0.05090284
0003e0 8d 69 32 bd 77 49 7f 3d 4b 6c b1 3d 0b b2 e1 3d
       -0.043557692 0.06232592 0.08663233 0.11020287
0003f0 14 85 18 bd de 8b 90 3d dc 3e a0 3d 83 06 ce 3c
       -0.03723629 0.070579275 0.078244895 0.02514959

net.3.bias f4 [128]
000000 20 8a 0f bd da 3a f7 3c 7e a9 10 bd de 43 04 3a
       -0.035043836 0.03017943 -0.03531789 0.00050455134
000010 0f 11 ba 3b 8b 3d b0 bc 8e 70 be 3d 26 64 7a 3c
       0.005678303 -0.021513721 0.09298812 0.015282666
000020 cc d7 5a bd 25 b1 a9 bc 11 94 8b 3c e2 fd 0c 3d
       -0.053428456 -0.020714352 0.017038377 0.03442181
000030 e6 55 2d 3d 67 f3 c9 3d 2e b3 59 3d 71 ea 7d bd
       0.042318247 0.098608784 0.053149395 -0.06199116
000040 84 a0 c2 3d f5 f6 2d 3d 63 11 23 3d b4 b2 57 3d
       0.09503272 0.042471845 0.039811503 0.05266066
000050 e7 8d a6 bd 83 f1 ec 3c fd d8 47 ba 14 1b 1c bd
       -0.081325345 0.028923756 -0.00076235813 -0.03811176
000060 b2 91 2a 3d 33 8d 76 3c d8 b8 1b 3d 0a 0c 54 3d
       0.041642852 0.015048313 0.038018078 0.051769294
000070 a2 75 f6 3c 05 df f5 bb d9 71 a5 3d f8 94 61 3d
       0.030085389 -0.0075033926 0.08078355 0.05507371
000080 3b 3a 58 3c a2 8a 4a bd cd 16 8f 3d 69 48 1b bd
       0.013197477 -0.049448617 0.06986771 -0.037910853
000090 65 13 7c 3d ca 97 27 bd a9 48 de 3d 03 bc fc 3d
       0.061541934 -0.04091624 0.108537026 0.12340548
0000a0 5d ec ef 3d 7c 15 fc 3c 2e 25 f8 3c 0b 69 b9 bd
       0.117150046 0.030771963 0.030291166 -0.090532385
0000b0 47 8c 88 3d 76 03 37 3d 9b 83 b7 3d 26 df 4e bd
       0.06667381 0.044681035 0.089606486 -0.05050578
0000c0 42 b5 e9 3c 58 9c 6e 3d 55 83 90 3d 8e e8 a2 3d
       0.028528813 0.05825457 0.070562996 0.079545125
0000d0 ae 9b 4b bd 98 0b f2 3d 23 97 bf bc 8f 68 c3 3d
       -0.049709015 0.118186176 -0.023387497 0.09541427
0000e0 fa 05 a2 3d 03 a0 f7 3b d6 bd 0e bd 51 6c f4 3d
       0.07911296 0.0075569167 -0.03484901 0.11934722
0000f0 54 69 59 3d 49 e4 d0 3c 52 5a cc 3d 52 04 3f 3d
       0.053078964 0.02549948 0.09978165 0.04663498
000100 f8 c3 8c 3b 8d 69 18 bd c7 b0 1c 3c 67 83 ab bd
       0.0042958222 -0.037210036 0.009563631 -0.083746724
000110 59 1f 9e bd c7 f6 2e bd 29 83 87 3d be bb 9d 3d
       -0.07720823 -0.042715814 0.06616814 0.077018246
000120 d1 8b ca 3c 38 fd 31 3d c3 10 5f bd b7 ba 1d 3e
       0.024724873 0.04345438 -0.054459345 0.15403257
000130 cd 90 95 3d 1b 9d 49 3d 92 5f 80 3d 61 0e b8 bc
       0.07303009 0.049222093 0.062682286 -0.022467794
000140 4f 51 37 bd e4 e3 05 bd 06 bb 99 3b 9d 8d 91 3d
       -0.044755276 -0.032688037 0.0046914844 0.07107089
000150 66 40 53 3d 87 48 41 3d 05 c0 51 bd 6a c9 ad 3c
       0.051575087 0.047188308 -0.051208515 0.021214206
000160 9a 4c 89 3d d1 d3 89 3d fd 12 68 3d d2 ab ab 3c
       0.06704064 0.06729854 0.056658734 0.020955954
000170 9e 1e 8c bc d3 50 52 bb 07 ee bf 3d 02 cb 44 3d
       -0.017104443 -0.0032091632 0.09371572 0.048045166
000180 3b 48 f7 3d fb ce ad 3d 04 5b 20 3d 91 e4 ac bc
       0.12074324 0.08486744 0.0391493 -0.021105083
000190 0d 25 3e bd 3f 4b 44 3d 71 fd 83 bc 1c 67 e0 3c
       -0.046422053 0.047923323 -0.016112061 0.027392916
0001a0 d4 42 8e 3d a2 66 08 3d cf 0a 9c 3d 23 ff ad bc
       0.0694634 0.033301003 0.07619249 -0.021239823
0001b0 b0 74 6a bd 06 18 a5 3d da 43 d1 3c 02 22 31 bb
       -0.057240188 0.08061223 0.02554505 -0.0027028327
0001c0 ef 88 bb bd ca e5 86 3c f5 7e 9c 3d d1 e4 0b 3d
       -0.091569774 0.016466994 0.07641403 0.034153763
0001d0 67 4f 35 3b a3 25 6e 3d e0 11 3c 3d 4b 6a e8 3b
       0.0027665736 0.058141362 0.045915484 0.0070927492
0001e0 e3 13 6c bc aa f4 0b 3b 0e f9 e1 3c b8 39 9c 3d
       -0.014409038 0.0021355548 0.027584579 0.076281965
0001f0 1c 25 aa 3d c0 87 86 bd 30 56 06 3d 17 c6 6a 3d
       0.08307859 -0.06568861 0.03279704 0.05731782

net.5.weight f4 [100, 128]
000000 8c aa d2 bc d0 2e 4d 3d 8b 28 9c 3d 87 33 38 3d
       -0.025716089 0.050093472 0.076249205 0.044971015
000010 e2 24 33 bd 16 4c 80 bc 48 e8 3a bd 0a d4 7d 3d
       -0.043736346 -0.01566128 -0.045631677 0.061969794
000020 29 18 db 3d c0 01 0a 3d 43 44 c4 bc fd 8e cb 3b
       0.106979676 0.033693075 -0.023958331 0.006212114
000030 cb 96 49 3d ad 44 ae bc bb 89 4d b7 7e de 3f 3c
       0.049216073 -0.021272982 -1.225102e-05 0.011710761
000040 27 1e b2 3d 98 6b 98 3d ac 7a 00 bc 7b c7 dd bc
       0.08697157 0.07442397 -0.007841747 -0.027072659
000050 1d 1e 71 bd 5a 1e 89 3c d5 63 58 3d 52 fb a0 3c
       -0.05886661 0.016738106 0.052829582 0.019651089
000060 a9 28 81 3d d1 84 6d 3d 3b a4 bc bc 91 5f 0d bc
       0.063065834 0.05798799 -0.02302753 -0.008628742
000070 ea 51 76 3d 85 69 ee 3d a0 1d 40 bd cd ac 3f 3d
       0.060136713 0.1164122 -0.046903253 0.046795655
000080 f1 76 29 bc a2 b2 8f 3d ef c7 2d bd 35 ad f7 3d
       -0.010343299 0.070164934 -0.042427 0.120935835
000090 16 22 55 3d 30 37 5e bc e7 22 e0 3d 7c f7 83 bb
       0.05203446 -0.013562962 0.10944157 -0.004027305
0000a0 49 cc af 3c 4f 9c 5c 3d c8 46 c8 3d 7d 75 e8 3c
       0.021459715 0.053860005 0.097791255 0.028376335
0000b0 6c 31 54 bc 18 d4 c5 3c 3f 16 60 3d 52 31 cd bb
       -0.012951236 0.024148986 0.054708716 -0.006261983
0000c0 d7 83 89 bc 47 0f c6 bc 2c 52 90 3b d6 0e 12 3c
       -0.016786499 -0.024177207 0.004404327 0.00891467
0000d0 39 97 39 3d b1 07 fd 3c 65 53 0e 3c 8a f5 a3 3d
       0.045310233 0.030887457 0.008686875 0.08005817
0000e0 c5 e6 88 3d 88 39 d7 3d af 76 b8 3d e4 b9 a5 3d
       0.06684641 0.1050902 0.09007012 0.080920964
0000f0 0a a0 a3 3d a9 a7 a3 3d c7 4e 38 3d 28 f5 73 3d
       0.079895094 0.07990963 0.044997003 0.05955997
000100 e1 a1 be bb f7 55 b4 3d 47 03 99 bc b0 98 77 3d
       -0.0058176373 0.08805459 -0.01867832 0.06044835
000110 85 fa 3b bd 55 a3 dc 3d 5b db 2e bd 29 00 83 3c
       -0.04589321 0.107733406 -0.042689662 0.015991287
000120 a4 45 b6 3d 1d 51 ee 3d c6 a4 f7 3d d9 4a ef 3d
       0.08900002 0.11636565 0.12091975 0.11684198
000130 33 a9 b1 3c 99 a1 f2 bb ce 6c 90 bc 24 3d b9 3d
       0.021687126 -0.007404518 -0.017630007 0.09044865
000140 07 d7 e9 3d f4 af 24 bb 22 eb 01 bd 4b 3c e8 3d
       0.11417966 -0.002512929 -0.03171838 0.11339625
000150 ac 16 d6 3c 59 86 b2 3d be a3 19 bd d5 af 0b 3b
       0.026133858 0.08717031 -0.037509672 0.002131452
000160 15 4b 3d bc 37 22 a3 3d fb 5a a6 3b 15 d7 8b 3d
       -0.0115535455 0.0796551 0.0050767637 0.06828133
000170 cf 48 97 3d c8 f7 e6 3d 7e 68 ad 3d 65 5d 19 3e
       0.07386934 0.11277729 0.08467196 0.14977033
000180 70 38 cf bb f8 55 f3 bc d1 f8 27 bc 7c 93 8c bd
       -0.0063238665 -0.029704079 -0.010252194 -0.06864068
000190 e1 a6 5e 3c f8 ab d3 ba ab 13 ed 3c 63 00 c0 bb
       0.013589592 -0.0016149273 0.028940042 -0.005859421
0001a0 b4 7e e0 3d df 33 9f 3d 9b c8 d0 3d 8f 26 6c 3c
       0.10961667 0.077735655 0.101945125 0.01441349
0001b0 78 18 a5 3d a6 29 36 bd 18 ee 8b 3d de 11 cd 3d
       0.08061308 -0.044473313 0.06832522 0.100131735
0001c0 96 07 0b ba f3 a6 81 3d 64 5f a8 3d 45 9d e6 3d
       -0.00053035596 0.06330671 0.08221319 0.112604655
0001d0 48 40 cf 3c 53 fc 87 3d b0 b1 82 bc 92 78 56 bd
       0.025299206 0.06639924 -0.015953869 -0.05236108
0001e0 62 50 16 bd 88 29 85 3c 86 42 e7 3d ee 87 50 3d
       -0.036697753 0.016255155 0.11291985 0.050910883
0001f0 f4 2d 44 bd 85 8f 84 3d 41 cd fd bc 71 1e c6 bc
       -0.047895387 0.06472687 -0.030981662 -0.024184437
000200 b7 98 79 bd a7 b6 2b 3d db 82 d0 3d 68 d1 28 bd
       -0.060936656 0.041922238 0.10181209 -0.04121533
000210 d1 f4 47 bd 6b 0b ef 3c 66 0d 08 bc b6 17 47 3d
       -0.04881746 0.02918025 -0.008303976 0.048606597
000220 6b e4 ca 3d 3a 16 4c bd 0a 9a de 3d 06 1f 98 bc
       0.099068485 -0.049825884 0.10869224 -0.01856948
000230 c2 d8 57 bd cb d7 9d bc b2 90 31 3d af 6b 40 bd
       -0.05269695 -0.019267937 0.043350883 -0.046977695
000240 cc 43 fc bc a3 78 93 3d bd a1 12 3d 88 e2 9a 3d
       -0.030794047 0.07200744 0.035798777 0.07562739
000250 e4 e7 ae bd 42 b6 99 3d c3 28 e7 3d 5c 99 b6 3c
       -0.085403234 0.07505466 0.112870716 0.022289924
000260 ec ff da 3d 48 00 14 3c d5 35 05 bd c5 e5 b9 3d
       0.106933445 0.00903327 -0.03252204 0.09077028
000270 2c 31 be 3d 8c 7b c1 3d a5 63 f0 3d 5f 49 88 bc
       0.092867225 0.09447393 0.11737756 -0.016636549
000280 c4 9d 20 bd 5c 14 95 3d 15 8b a7 3d 04 24 f7 3d
       -0.039212957 0.07279274 0.08180825 0.12067416
000290 51 c1 19 3a b4 8c 89 3d c2 62 34 bc 37 33 92 3d
       0.0005865293 0.0671629 -0.011009874 0.07138675
0002a0 b2 76 08 bd f3 e7 38 bd 3e 07 73 3d 0d 71 5e bd
       -0.03331632 -0.04514308 0.05933308 -0.054307032
0002b0 77 3b ea 3d 50 65 c3 3d 02 fb a4 3c 7d 75 c8 3d
       0.11437123 0.09540808 0.020139221 0.09788034
0002c0 53 7a 2b bd d9 42 83 3d 20 f9 9c 3c b3 03 a4 bc
       -0.041864704 0.064092346 0.01916176 -0.020021295
0002d0 40 f8 72 3c ab bd 8b bc 8e 1a a2 3a eb 01 9a bc
       0.014829695 -0.017058214 0.0012367533 -0.018799743
0002e0 7f dd f8 bc ea 5a cc bc 42 90 9d 3d a5 f0 9f bc
       -0.030379055 -0.024945695 0.076935306 -0.019523928
0002f0 85 91 d2 3c df c2 24 ba d8 f0 aa 3d a2 21 d6 3d
       0.025704155 -0.00062851416 0.083467185 0.10455634
000300 97 8b 63 bd 79 26 6f 3c e0 0f 1a 3d 15 45 a7 bd
       -0.055553045 0.014596575 0.037612796 -0.08167473
000310 b7 b7 36 bd 42 f3 56 3d ab 9f 82 3b 94 32 98 3d
       -0.044608798 0.052478082 0.003986319 0.07431522
000320 38 f8 4b 3d 8e 79 0f bd 04 0f f9 3d 22 38 e6 3d
       0.049797267 -0.035028033 0.12161067 0.11241175
000330 cf 4f a9 3c ed 69 b5 3d 5d 04 62 bd d6 66 3c bd
       0.020667939 0.08858094 -0.055179942 -0.04599651
000340 b1 3e 84 3d be c5 35 bd 9b 08 97 3d 00 91 8d 3d
       0.0645727 -0.044378035 0.07374688 0.06912422
000350 8d b7 57 3d b5 9c 9a bb e1 88 ee 3c 9a 05 ea bb
       0.052665282 -0.004718388 0.029118003 -0.007141781
000360 83 10 d0 bc 95 7c 61 bd 66 c3 24 bd f4 ac b2 3d
       -0.025398498 -0.05505045 -0.04022541 0.087243944
000370 ee 48 4c bd 12 7f f7 3c 2c 9c f8 3c 4c a7 3c 3c
       -0.04987424 0.030211959 0.030347906 0.011514496
000380 00 45 fa 3d ea 3f bc 3d d6 2e b7 3d 2a ba a4 3d
       0.12220192 0.09191878 0.0894448 0.080433205
000390 76 08 aa 3d 15 af a2 3d 0c 01 ed bc b1 59 cb bc
       0.08302395 0.079435505 -0.028931163 -0.024823042
0003a0 99 f5 e0 3d 38 f9 b7 3d 54 22 94 3d 63 a2 c9 bc
       0.10984344 0.089830816 0.0723311 -0.024613565
0003b0 33 9f c2 3c e4 ba 4c bd 01 3b 00 bd ab 85 47 bc
       0.023757553 -0.04998292 -0.03130627 -0.012177865
0003c0 b9 5f 5e bc 6c 64 9c 3d c1 ee c6 3d c1 37 ea 3c
       -0.013572627 0.076363415 0.097135074 0.028591039
0003d0 df e6 d1 3a a9 0d 5c bd e8 b4 b1 3d 23 e2 87 3d
       0.001601424 -0.053723965 0.08677083 0.06634929
0003e0 bb b1 d0 3c 01 e9 98 3d 97 c0 bf 3c 40 86 f0 3d
       0.025475373 0.07466317 0.023407264 0.11744356
0003f0 b6 64 df 3d 69 52 8b bd b7 58 3f 3d f7 63 a1 3d
       0.10907881 -0.06802828 0.046715464 0.07880395

net.5.bias f4 [100]
000000 5f fe fa bc a3 7c d1 3d 9c 79 1b bd d8 6a ea 3c
       -0.030638872 0.10228851 -0.037957773 0.0286154
000010 7f 74 d8 bd 24 2c ac 3c 3b c1 b6 bd 9d 3b 1d 3d
       -0.10569095 0.021017142 -0.089235745 0.03838693
000020 4b 86 5b bd 94 d5 46 bc 93 bb 8f 3c 1a 91 47 bc
       -0.05359487 -0.012135882 0.017545497 -0.012180591
000030 d8 9f aa bd 65 b5 8c bd 6f fd 32 3d 22 58 1b bd
       -0.08331269 -0.06870536 0.043698724 -0.037925847
000040 5d ca 41 bd 07 4d e3 3c 76 e2 e6 bd 90 f1 6d bd
       -0.04731213 0.02774669 -0.11273663 -0.0580917
000050 82 ce 50 3d 53 cc 1a bd af d3 c4 3c 31 d2 17 bc
       0.05097819 -0.037792515 0.02402672 -0.009266422
000060 09 22 42 bc 47 eb a5 bd 74 98 6a 3d 81 9b ef bc
       -0.011848935 -0.08101516 0.057274297 -0.029248955
000070 06 d0 d4 bd 11 08 67 bd b2 4a ce bd 6b b0 2d bd
       -0.1039124 -0.056404177 -0.10072841 -0.042404573
000080 30 20 f3 3c 38 ca 92 bd 03 f3 75 bc e5 23 af bd
       0.029678434 -0.071674764 -0.015011552 -0.08551768
000090 76 88 9a 3c e4 ea 49 bc a5 29 37 3d 8d d6 70 3d
       0.018863898 -0.012324069 0.04471745 0.05879836
0000a0 ab 76 3b 3d 1e a9 c0 bd 10 2d 73 3d 88 2c f2 bc
       0.045767467 -0.094072565 0.059369147 -0.02956225
0000b0 46 ed 0e 3d 24 54 16 3d a8 0d 0c bc 12 85 eb 3c
       0.03489425 0.036701337 -0.008548178 0.028749976
0000c0 9d 26 3e 3d 35 85 a5 3c 3f 39 c7 3c 20 65 f3 3c
       0.046423543 0.02020512 0.02431929 0.029711306
0000d0 28 9c 2c 3d ce 36 97 bd e2 fe 61 bd 0c 64 6b bd
       0.04214111 -0.073835 -0.055174716 -0.05746846
0000e0 34 c2 55 3d 45 8c 44 bd 23 70 ac bd 6f 92 d0 bd
       0.05218716 -0.047985334 -0.08419826 -0.1018418
0000f0 e5 93 93 bd bb 0a d2 bd 0d 99 08 3d 2d da 0c ba
       -0.07205943 -0.10255953 0.033349086 -0.0005373087
000100 8e dc c5 3c 9a 7c ac bc 42 75 ab bc b0 85 8d bc
       0.02415302 -0.021055508 -0.020929936 -0.017275661
000110 a9 b6 27 bd a6 72 ce bc 9f ea 6a 3b 36 5e dc bc
       -0.040945683 -0.025201153 0.0035845411 -0.026900392
000120 19 cc cb bb ee 23 d7 bd e4 24 c8 bd 80 96 ba bd
       -0.0062193987 -0.105049 -0.09772661 -0.09110737
000130 4e 2c c1 3c 11 fa 86 3a 09 9f bf bd 2e 41 1f 3d
       0.023580696 0.0010297914 -0.093565054 0.03888052
000140 1c a0 06 bd 15 13 a6 3c 2b 62 cf bd 62 41 cb 3c
       -0.032867536 0.02027277 -0.10126146 0.02481145
000150 f7 d3 32 bd d0 44 0c bd 00 04 a0 bd 07 a3 60 bd
       -0.043659177 -0.034245312 -0.07813263 -0.054842975
000160 16 ee f5 3c f0 eb 30 bd e9 0a 7a bd 62 34 69 bd
       0.030020755 -0.043193758 -0.06104556 -0.05693472
000170 8c b5 87 bd 77 d2 28 3d 31 59 f5 3c 94 3e b8 bd
       -0.06626424 0.04121634 0.029949756 -0.08996311
000180 f5 9b 12 bd 58 c5 e5 3b df d2 d9 bd e6 f3 50 3d
       -0.035793263 0.0070120506 -0.106359236 0.05101385
