mlp_breakpoints.pt (torch, 46432 bytes, 8 tensors)

network.0.weight f4 [64, 100]
0	0x3d41eaec	0.04734318
1	0x3ce6c2c4	0.028169043
2	0x3b75fb00	0.003753364
3	0x3d69d47f	0.057087418
4	0x3d105cee	0.035244875
5	0xba5a7552	-0.0008333522
6	0xbc85472f	-0.016269295
7	0x3d519be2	0.051174052
8	0x3ddb04c3	0.106942676
9	0x3da96b29	0.08272392
10	0x3dd3f9ca	0.10350378
11	0x3e149349	0.1450931
12	0xbd22248d	-0.03958564
13	0x3d19ee14	0.037580565
14	0xbced6cd5	-0.02898256
15	0x3d8f970e	0.07011233
16	0x3da8d9ef	0.082446925
17	0x3d8c8d8d	0.06862936
18	0xbc0a6816	-0.008447668
19	0x3bcfc7ff	0.00634098
20	0xbcb72c56	-0.022360008
21	0xbd8cbb0b	-0.06871613
22	0xbd564ea4	-0.05232109
23	0xbd832c5e	-0.06404947
24	0x3d1ff907	0.03905585
25	0xbd727b95	-0.05919989
26	0xbdfdc519	-0.12391109
27	0xbdc81e7a	-0.09771438
28	0xbd80b4ff	-0.06284522
29	0xbd084f63	-0.033278834
30	0xbd8cfd44	-0.06884244
31	0xbdfc6557	-0.123240165
32	0xbc2f232b	-0.010689537
33	0xbd013ca8	-0.031551987
34	0x3caa623a	0.020798791
35	0xbdaf47b2	-0.08558597
36	0x3c9ad7a3	0.018901652
37	0xbdefd990	-0.11711419
38	0xbde99d9c	-0.11407015
39	0xbdfee04c	-0.12445125
40	0xbdb4662a	-0.08808549
41	0xbd93f5d8	-0.07224625
42	0xbd03fd53	-0.03222401
43	0x3d243cf1	0.04009718
44	0xbda3fc26	-0.08007078
45	0xbd5ac161	-0.053407077
46	0xbcafcb27	-0.021459175
47	0x3d358422	0.044315465
48	0x3c39c347	0.011338062
49	0x3da1a6ae	0.0789312
50	0x3dc98fb3	0.098418616
51	0xbce6e901	-0.028187277
52	0x3dfe44c5	0.124154605
53	0x3d1a335f	0.037646648
54	0x3d5ff92d	0.054680992
55	0x3c50b010	0.012737289
56	0x3dc1e6e1	0.09467865
57	0x3d89e710	0.06733525
58	0xb8993b20	-7.3066214e-05
59	0x3ac1d0c8	0.0014786953
60	0x3cf10d9f	0.02942544
61	0x3dc53c5b	0.096306525
62	0xbd2ad95a	-0.04171119
63	0xbd8c92ef	-0.06863963
64	0xbca31f8d	-0.019912506
65	0x3a223631	0.0006187885
66	0x3dc63b0b	0.0967923
67	0xbcc3dd66	-0.023909282
68	0xbd470958	-0.048592895
69	0xbde6a13c	-0.11261222
70	0xbd96255b	-0.07331344
71	0x3c9bb855	0.019008795
72	0x3cb72982	0.02235866
73	0xbd0d0896	-0.034432016
74	0xbcf9e7e9	-0.030506091
75	0xbe03db46	-0.12876615
76	0x3d62b430	0.05534762
77	0xbdad0920	-0.08449006
78	0xbd7e3990	-0.062066615
79	0xbd9f9f13	-0.07794013
80	0xbdc63756	-0.09678523
81	0xbda77091	-0.08175767
82	0xbda3d73e	-0.080000386
83	0xbcf4bc8a	-0.029875059
84	0x3c896c5f	0.016775308
85	0x3c8d3277	0.017235978
86	0x3d86ba5c	0.06578514
87	0xbd758a21	-0.059946183
88	0xbd3c52cf	-0.04597741
89	0xbd7ba0f4	-0.061432794
90	0x3d9709d3	0.07374921
91	0x3dd94d60	0.10610461
92	0x3d8d9471	0.069130786
93	0xbc7b68bf	-0.015344798
94	0x3bc4b1e1	0.00600265
95	0x3c70fd0f	0.014708771
96	0x3dbe7766	0.09300117
97	0x3d64d3ea	0.05586616
98	0x3cf50edc	0.029914312
99	0xbd2292d4	-0.039690807
100	0x3e128ff0	0.1431272
101	0xbc9eb577	-0.019373639
102	0xbddb5bde	-0.10710882
103	0xbd6ddb50	-0.05807048
104	0x3b9d265a	0.0047958316
105	0x3d3c0de8	0.0459117
106	0xbd25a27d	-0.040438164
107	0xbcf0258c	-0.029314779
108	0xbccb3bc6	-0.024808776
109	0xbd7fba72	-0.062433667
110	0xbdae819c	-0.08520815
111	0xbd975d44	-0.07390836
112	0xbdfa9d41	-0.12237025
113	0xbc71ea68	-0.014765359
114	0x3d828e0d	0.0637475
115	0xbd4f0408	-0.050540954
116	0x3d89d04b	0.06729182
117	0x3d7c6846	0.06162288
118	0x3d6c4eee	0.05769246
119	0xbcd2ac33	-0.025716877
120	0x3d0caa68	0.0343422
121	0xbd2b42f0	-0.041811883
122	0xbd0c550b	-0.03426079
123	0xbc1e4b5f	-0.009661525
124	0xbd3d4aac	-0.04621379
125	0xbcc193f6	-0.023630124
126	0x3dbaa36e	0.09113203
127	0x3dea04fe	0.114267334
128	0xbd81e309	-0.06342132
129	0xbd65479e	-0.055976503
130	0x3ba67b3f	0.00508061
131	0x3d60ddf2	0.054899164
132	0xbcd8b14b	-0.026451727
133	0xbcc03031	-0.02346048
134	0xbd91fa5f	-0.071278326
135	0xbd7822a3	-0.060579907
136	0xbd8b9415	-0.06815354
137	0x3c6888d9	0.014192783
138	0xbce0ec2f	-0.027456371
139	0x3d5e1e4c	0.054228112
140	0xbd501033	-0.0507967
141	0xbb00f9c0	-0.0019680113
142	0x3d83b296	0.06430547
143	0xbd8141d4	-0.06311384
144	0x3c48ca2e	0.012255235
145	0x3d7ae39b	0.061252218
146	0xbd8e1906	-0.069383666
147	0x3ca68047	0.02032484
148	0xbdc71be6	-0.09722118
149	0xbda74ed6	-0.08169334
150	0xbd5bc3da	-0.053653575
151	0xbe0350fc	-0.12823862
152	0xbcf587a6	-0.029971909
153	0xbb28ebeb	-0.0025775384
154	0x3d30c701	0.043158535
155	0x3dd1d460	0.102455854
156	0xbdc7db87	-0.097586684
157	0xbd83727f	-0.06418323
158	0x3d091b2f	0.03347319
159	0x3da8eff7	0.08248895
160	0x3cd702c7	0.026246442
161	0xbd1aca66	-0.03779068
162	0x3d59eb93	0.053203177
163	0x3db2665c	0.0871093
164	0x3d161861	0.036644343
165	0xbd618e70	-0.05506748
166	0x3d9e1e39	0.07720608
167	0x3d293624	0.0413114
168	0x3c316624	0.010827575
169	0x3bbb27c4	0.0057115275
170	0x3d8913a5	0.066932
171	0xbd0de05c	-0.034637794
172	0xbcd35af2	-0.025800202
173	0xbc822e81	-0.015891315
174	0x3d646c19	0.055767152
175	0x3cce9b78	0.025220618
176	0x3de3ffe1	0.111327894
177	0x3cd7de13	0.02635101
178	0x3d210fdd	0.03932177
179	0x3d7358ad	0.05941074
180	0xbcea3145	-0.028587947
181	0xbdb79ef7	-0.08965867
182	0xbd811c79	-0.06304259
183	0xbd298922	-0.041390546
184	0xbda47e55	-0.080319084
185	0xbd4c2e4e	-0.049848847
186	0xbce2681e	-0.027637538
187	0xbb58420f	-0.0032998358
188	0x3baa9086	0.005205217
189	0xbde0111a	-0.10940762
190	0xbe34580c	-0.17611712
191	0xbcc7eee5	-0.024405906
192	0xbd42594c	-0.04744844
193	0xbe1515ce	-0.14559099
194	0xbdb089cd	-0.086200334
195	0xbde3ac15	-0.111168064
196	0xbdf76b9f	-0.12081074
197	0x3c4d0731	0.012513922
198	0xbdb81086	-0.089875266
199	0xbcf55394	-0.02994708
200	0xbc707698	-0.014676712
201	0xbcbd25ec	-0.023089372
202	0x3d5f0d99	0.054456327
203	0x3da361df	0.07977652
204	0x3c676881	0.014124037
205	0xbc0f04c5	-0.0087291645
206	0xbcef3b0a	-0.029202957
207	0x3de140c6	0.10998683
208	0x3ca41b7b	0.020032635
209	0x3d1ee9a7	0.038797047
210	0x3d23e316	0.040011488
211	0xbc75d645	-0.015004699
212	0xbd859dee	-0.06524263
213	0xbc699520	-0.014256746
214	0xbcc9b9cc	-0.024624728
215	0xbd4e3fd6	-0.050353847
216	0xbcde1473	-0.02710936
217	0xbba4fb7f	-0.0050348635
218	0xbdc059da	-0.09392138
219	0xbdfff154	-0.124972016
220	0xbe24e223	-0.1610189
221	0xbd7fe5c8	-0.062474996
222	0xbdd2860b	-0.10279473
223	0xbe30043f	-0.1718912
224	0xbe08bbe5	-0.13352926
225	0xbca1c62e	-0.01974782
226	0xbd247de9	-0.04015914
227	0xbd9c3a60	-0.07628322
228	0xbd0868ac	-0.033302948
229	0xbd2b3492	-0.04179818
230	0x3d81283f	0.063065045
231	0xbd62782e	-0.055290394
232	0xbd16ff44	-0.036864534
233	0x3b8181c9	0.003952239
234	0x3e1a676c	0.15078515
235	0x3e35540c	0.17707843
236	0x3e1e3c94	0.15452796
237	0x3de59973	0.11210909
238	0x3e2571f9	0.16156758
239	0x3de5bb38	0.1121735
240	0x3dbc0b95	0.091818966
241	0x3df5546e	0.11978994
242	0x3d73b9f9	0.05950353
243	0x3ddf03d7	0.10889404
244	0xbc437714	-0.011930246
245	0x3d7bb3f7	0.061450925
246	0xbca19603	-0.019724851
247	0xbd18bd12	-0.037289687
248	0xbce13019	-0.027488755
249	0x3d0b462a	0.03400246
250	0xbdcecb81	-0.10097409
251	0xbdd44b21	-0.10365892
252	0xbdced1f9	-0.10098643
253	0xbe150e5b	-0.14556257
254	0xbe27b961	-0.1637931
255	0xbd24922d	-0.040178467

network.0.bias f4 [64]
0	0x3d34a58d	0.044103194
1	0x3d83890a	0.064226225
2	0xbc6f9ab7	-0.014624289
3	0x3cf2bddb	0.029631546
4	0xbe0a2933	-0.13492279
5	0x3d660053	0.056152653
6	0xbcb59b35	-0.022168735
7	0x3e04462a	0.1291739
8	0x3e0b1422	0.13581899
9	0x3e2272e3	0.15864138
10	0x3d46e881	0.048561577
11	0x3e068a38	0.13138664
12	0xbbe59b26	-0.0070070205
13	0xbd7a94a8	-0.061176926
14	0x3cc14781	0.023593666
15	0x3dc522d5	0.09625784
16	0x3e54972c	0.20760792
17	0x3e0d7e6f	0.13817762
18	0xbc6e112c	-0.014530461
19	0x3d928071	0.071534045
20	0x3d7921f0	0.06082338
21	0x3dcefe73	0.10107126
22	0x3e0a88b2	0.13528708
23	0x3e17c0f6	0.14819703
24	0x3d29ad65	0.041425128
25	0x3d236685	0.039892692
26	0x3df68d2d	0.12038646
27	0x3d992b8a	0.074790075
28	0x3e31848e	0.17335722
29	0x3e2db233	0.16962509
30	0x3dfbd3f7	0.122962885
31	0x3c4184e0	0.011811465
32	0x3d3aec0a	0.04563526
33	0x3e388a0e	0.18021414
34	0x3e353677	0.17696558
35	0x3da08fdc	0.07839939
36	0x3c780e1c	0.015140083
37	0xbb350b3d	-0.0027625107
38	0xbad11b08	-0.001595349
39	0x3d958b1b	0.07301923
40	0x3e32fd43	0.17479424
41	0x3c99d82e	0.01877984
42	0x3d778683	0.060431015
43	0x3e278c0f	0.16362022
44	0x3e1ca8ee	0.15298817
45	0x3e14fb7f	0.14549063
46	0x3dc34c66	0.09536056
47	0x3a8ee41d	0.0010901723
48	0x3e0a7559	0.13521327
49	0x3d9f2249	0.07770211
50	0x3e07e735	0.13271792
51	0xbc8991b1	-0.016793104
52	0x3d7d733a	0.061877467
53	0x3de270b7	0.11056655
54	0x3c92782e	0.017879572
55	0x3db7a9d4	0.08967939
56	0x3d98ab9c	0.07454607
57	0x3d9b549d	0.07584498
58	0x3dfd964e	0.12382184
59	0x3e1470ac	0.14496106
60	0x3dc938be	0.09825276
61	0xbd2718fd	-0.040795315
62	0xbafb241c	-0.0019160542
63	0x3da33246	0.07968573

network.2.weight f4 [32, 64]
0	0x3d7e3194	0.062059
1	0x3d69c3cb	0.05707149
2	0xbdcb006b	-0.09912189
3	0xbc831cfe	-0.016005035
4	0x3ce2a432	0.027666185
5	0x3e372c2a	0.17887941
6	0x3db18f14	0.08669868
7	0x3dd1a67c	0.102368325
8	0x3becd557	0.0072275805
9	0x3e2453d4	0.16047603
10	0x3d946f3b	0.07247778
11	0x3dc69955	0.096972145
12	0x3d8937f6	0.06700127
13	0xbbd4ca66	-0.0064938543
14	0xbcc42a3b	-0.023945918
15	0xbcb6a71b	-0.022296479
16	0xbcf8229f	-0.030289946
17	0xbdea6318	-0.11444682
18	0xbdcb2175	-0.09918491
19	0x3dec3ccb	0.11535033
20	0xbb895679	-0.0041912165
21	0xbccddf50	-0.025130898
22	0xbc908642	-0.017642144
23	0x3e09bff2	0.13452128
24	0x3e0f6d9a	0.14006653
25	0x3dda51ca	0.10660131
26	0xbbb350da	-0.0054722847
27	0x3d86ed58	0.065882385
28	0x3d898030	0.06713903
29	0x3d027ab0	0.031855285
30	0x3b2d067b	0.0026401568
31	0x3deacfe2	0.11465432
32	0xbd20f9b8	-0.03930065
33	0x3d4b74f1	0.04967207
34	0x3da9f430	0.08298528
35	0x3dc0dc36	0.09417002
36	0xbd350365	-0.04419269
37	0x3dd19c64	0.10234907
38	0x3dc6ad1f	0.09700989
39	0x3daf59e8	0.0856207
40	0x3c5023b2	0.012703823
41	0xbc8df68a	-0.017329473
42	0xbd46f177	-0.048570123
43	0x3e0c49f2	0.13700083
44	0x3d253a04	0.04033853
45	0x3e157dae	0.14598724
46	0xbc662710	-0.014047399
47	0x3dc51e58	0.09624928
48	0xbc98f341	-0.01867068
49	0xbc8f7831	-0.017513366
50	0xbd6905a4	-0.056890145
51	0xbde7151f	-0.112833254
52	0xbd028005	-0.03186037
53	0x3e0de2ba	0.1385602
54	0x3e126084	0.1429463
55	0x3d13f43e	0.0361216
56	0xbdf6cdb1	-0.12050951
57	0xbcd5987c	-0.026073687
58	0xbd161034	-0.036636546
59	0xbd3a83c7	-0.04553583
60	0x3cd24330	0.025666803
61	0x3dd47f34	0.103758246
62	0x3dadd22e	0.08487354
63	0x3e15c404	0.14625555
64	0x3d84cd11	0.06484426
65	0xbd52d790	-0.051475108
66	0xbd9bad2e	-0.07601391
67	0x3dbbcf8a	0.09170444
68	0x3d4404f8	0.0478563
69	0xbdc4e96c	-0.09614834
70	0xbc4a6098	-0.012352131
71	0x3e07cf3f	0.13262652
72	0xbcc5d6f3	-0.024150347
73	0x3d24806d	0.04016154
74	0x3dff26af	0.1245855
75	0x3e04e2bc	0.12977117
76	0x3daa69fa	0.08320995
77	0x3dd0444a	0.10169275
78	0x3d99ce40	0.07510042
79	0xbc144710	-0.009050146
80	0xbdb97087	-0.09054666
81	0x3df14bd5	0.11782042
82	0x3e0df998	0.13864744
83	0x3d1752bb	0.036944132
84	0xbde42b93	-0.111411236
85	0x3e00b37a	0.12568465
86	0x3dad2817	0.08454912
87	0x3e2a0610	0.16603875
88	0xbc764472	-0.015030967
89	0x3d1c61ae	0.038179092
90	0x3d61519e	0.055009477
91	0x3e1919bd	0.14951225
92	0x3e1a0f82	0.15044978
93	0x3e1d7031	0.15374829
94	0xbd480d4e	-0.048840813
95	0x3d818646	0.06324439
96	0x3d05d3a5	0.032672543
97	0xbdc3e1b1	-0.095645316
98	0x3dee34bb	0.11631151
99	0x3d08f7b3	0.03343935
100	0x3df3cdde	0.119045004
101	0x3ce4b9fe	0.02792072
102	0x3d8a56c6	0.06754832
103	0x3defadde	0.117030844
104	0xbbda4d69	-0.00666206
105	0xbd77a3aa	-0.060458817
106	0xbd018745	-0.031623144
107	0x3d44470a	0.04791931
108	0xbda4d1cb	-0.08047827
109	0x3de23a19	0.110462375
110	0xbc8ca0ff	-0.017166613
111	0xbdca4966	-0.09877281
112	0xbc13a04b	-0.009010385
113	0x3e0d3c75	0.13792594
114	0x3cd51cd3	0.026014721
115	0xb9c4fa33	-0.00037570446
116	0x3dafa735	0.08576814
117	0x3db2128c	0.08694944
118	0x3c55d2e4	0.0130507685
119	0x3e0b8035	0.13623126
120	0x3de06607	0.1095696
121	0x3d9153fc	0.07096097
122	0x3e1ce4a6	0.15321597
123	0x3d27e9e2	0.040994532
124	0x3d7af8f5	0.06127258
125	0x3d9e8b50	0.077414155
126	0xbd1ce14b	-0.038300794
127	0xbd4d1ea5	-0.050078053
128	0xbd3674e8	-0.044545084
129	0xbe1692fb	-0.14704506
130	0x3e9d33fc	0.30703723
131	0x3deea14e	0.1165186
132	0x3e52d9e2	0.20590928
133	0xbcbe0f33	-0.023200607
134	0x3c3b2344	0.011421982
135	0xbd874082	-0.06604101
136	0x3e077ecf	0.13231967
137	0xbd141c67	-0.0361599
138	0xbbbd94c0	-0.0057855546
139	0xbc0ada67	-0.008474923
140	0xbdbc24bf	-0.09186696
141	0xbdb71695	-0.08939854
142	0xbdb3e671	-0.087841876
143	0xbe176e56	-0.14788184
144	0x3dde09a7	0.10841685
145	0x3d6be4a7	0.057591107
146	0xbc8fa71a	-0.017535735
147	0x3cf6cae0	0.030126035
148	0xbe1125c2	-0.1417456
149	0x3e6ddff4	0.23229963
150	0x3e0b7d60	0.13622046
151	0x3d71a2eb	0.05899326
152	0x3ddb0600	0.10694504
153	0x3d626440	0.055271387
154	0xbe4e742f	-0.20161508
155	0xbcbed04f	-0.023292689
156	0x3db8e929	0.09028847
157	0x3e5f8ad4	0.21830302
158	0x3de1a73a	0.11018224
159	0xbdccee8e	-0.10006438
160	0x3db7f306	0.089819
161	0xbd950827	-0.072769456
162	0x3c840ed2	0.016120348
163	0xbe678462	-0.22609094
164	0x3b0c54aa	0.0021412768
165	0xbd9ad345	-0.07559828
166	0x3cb47694	0.022029199
167	0x3d666862	0.05625189
168	0x3dacfcca	0.08446653
169	0xbe03049b	-0.12794726
170	0xbd878568	-0.06617242
171	0xbd4f2e04	-0.050580993
172	0x3dd766c6	0.10517649
173	0xbd263eaa	-0.040587105
174	0x3dc91790	0.09818947
175	0xbdcfe30e	-0.10150729
176	0xbd09194f	-0.0334714
177	0x3d989390	0.0745002
178	0x3d8a0604	0.06739429
179	0x3d093928	0.033501774
180	0xbdb3caf7	-0.08778947
181	0x3c1c752b	0.009549419
182	0x3cb4f64a	0.022090096
183	0xbdbc1078	-0.09182829
184	0xbba50360	-0.0050358027
185	0x3dddf522	0.10837771
186	0xbe18f6f6	-0.14937958
187	0x3e142362	0.14466622
188	0x3bc615b2	0.0060450668
189	0xbe69e8af	-0.22842668
190	0xbda82ee7	-0.08212071
191	0x3dfcf96a	0.123522595
192	0x3d83d4c4	0.06437066
193	0xbe06c86d	-0.13162394
194	0x3d8a08ac	0.06739935
195	0x3d738279	0.0594506
196	0x3de9e04c	0.11419734
197	0xbd0d94de	-0.0345658
198	0xbdf9006c	-0.121582836
199	0x3dc4cc34	0.09609261
200	0xbdaaa9c2	-0.0833316
201	0xbd92e6ac	-0.071729034
202	0xbd7a45ff	-0.06110191
203	0x3d02f55c	0.031972274
204	0x3d390334	0.04516907
205	0xbd923162	-0.07138325
206	0x3dd89ac9	0.10576398
207	0x3daa6631	0.08320273
208	0x3d3420d8	0.043976635
209	0xbda79e4b	-0.08184489
210	0xbdef5f6f	-0.116881244
211	0x3d530cf6	0.051526032
212	0x3c07d6af	0.008290931
213	0x3d99429f	0.0748341
214	0xbcf68a92	-0.030095372
215	0x3dcbc109	0.09948928
216	0x3d95c809	0.07313544
217	0xbdcb596f	-0.099291675
218	0xbdcbd264	-0.09952238
219	0xbdc27fc0	-0.09497023
220	0xbd39c307	-0.04535201
221	0xbd304ecc	-0.043043897
222	0xbdff222e	-0.12457691
223	0xbdd1d7b7	-0.102462225
224	0xbda52513	-0.08063712
225	0xbd4214f8	-0.04738328
226	0x3ddba5e8	0.107250035
227	0xbda7ddea	-0.081966236
228	0xbdfe3ff2	-0.1241454
229	0x3dbc24d7	0.09186714
230	0xbdee177b	-0.11625572
231	0xbc94b63c	-0.018153302
232	0xbc9bb7d3	-0.019008553
233	0x3de27e54	0.110592514
234	0x3d1cd3aa	0.038287796
235	0x3cb5dfcb	0.02220144
236	0xbdc73820	-0.09727502
237	0xbd80eb74	-0.06294909
238	0xbd09d84b	-0.03365354
239	0xbdfcc830	-0.1234287
240	0xbccdb8ff	-0.025112627
241	0x3d275be8	0.040859133
242	0x3de671e6	0.11252193
243	0xbd6dd618	-0.058065504
244	0xbc707cb9	-0.014678174
245	0xbc8e4d27	-0.017370773
246	0x3d42c5ba	0.047551848
247	0xbd42cf24	-0.047560826
248	0xbd3b8a0c	-0.04578595
249	0x3d10e8ff	0.035378452
250	0x3d533746	0.051566385
251	0x3dae98a0	0.08525205
252	0xbdf19e98	-0.117978275
253	0xbd8cdea7	-0.06878405
254	0x3ddd5dd8	0.10808915
255	0xbdd59c72	-0.1043023

network.2.bias f4 [32]
0	0x3e03718b	0.12836282
1	0x3e2f9b7c	0.17149156
2	0xbd8b32f5	-0.06796829
3	0xbdc0dca1	-0.094170816
4	0x3e34d554	0.17659503
5	0xbd9d4975	-0.076800264
6	0x3c81060f	0.01574996
7	0x3d46c4ad	0.04852741
8	0xbc96bea2	-0.018401448
9	0x3da07a33	0.07835808
10	0xbd83f37a	-0.06442924
11	0x3e27b298	0.16376722
12	0x3dc84894	0.09779468
13	0xb936b6e0	-0.00017424999
14	0xbd28efa5	-0.041244168
15	0x3d3123e9	0.043247137
16	0x3e05235a	0.13001767
17	0x3e1155cf	0.1419289
18	0xbc953652	-0.018214379
19	0x3e01d58d	0.1267912
20	0x3e0d4ad5	0.13798077
21	0x3d88118d	0.066439725
22	0x3e37ad03	0.17937092
23	0x3d0e4be3	0.03474034
24	0xbd0ac207	-0.033876445
25	0x3bdfd3e7	0.0068306806
26	0x3de22dc4	0.11043885
27	0xbbbc29e6	-0.0057422994
28	0x3dd19527	0.10233527
29	0x3dcc04c3	0.09961846
30	0x3e48f831	0.19625928
31	0xbd005c20	-0.031337857

network.4.weight f4 [16, 32]
0	0x3e0784e8	0.13234293
1	0x399288b3	0.0002794914
2	0x3dd0318d	0.10165701
3	0xbdd15c5d	-0.10222695
4	0xbe19277a	-0.14956465
5	0x3e649e5a	0.22326031
6	0x3d8facb1	0.0701536
7	0x3df71acf	0.1206566
8	0x3d35bc82	0.04436923
9	0xbd38ca76	-0.045114957
10	0x3d817bdb	0.06322452
11	0x3d994526	0.07483892
12	0xbd81b6d2	-0.06333698
13	0x3d810802	0.063003555
14	0xbe4e4f39	-0.20147409
15	0x3d836275	0.064152636
16	0xbce8ddf0	-0.02842614
17	0x3e3645fd	0.17800136
18	0xbe0d23b4	-0.13783151
19	0x3e08bded	0.13353701
20	0xbdfcf372	-0.12351121
21	0xbddc0d6d	-0.10744748
22	0xbc81fe63	-0.015868371
23	0x3e077c1d	0.13230939
24	0x3c8af28b	0.016961357
25	0xbe14a668	-0.14516604
26	0x3c7b94f3	0.0153553365
27	0xbbb735e7	-0.0055911425
28	0xbb5a7be8	-0.0033338014
29	0xbd340e0f	-0.04395872
30	0x3e1833a4	0.1486345
31	0xbd39f974	-0.045403913
32	0x3deba3a5	0.11505822
33	0xbcf52144	-0.029923089
34	0xbd7af771	-0.061271135
35	0x3e368576	0.17824349
36	0x3dd4bc88	0.10387522
37	0x3beb07a6	0.0071725426
38	0xbb4ae262	-0.0030957689
39	0x3d37a265	0.044832606
40	0x3e0b4bfa	0.13603202
41	0x3e18c491	0.14918734
42	0xbc9b0f3d	-0.018928165
43	0xbe157e4e	-0.14598963
44	0xbbe921e4	-0.007114636
45	0x3ca8d260	0.020608127
46	0xbd15b5ac	-0.03655021
47	0xbd57c667	-0.052679446
48	0xbdd906be	-0.10596989
49	0x3e0b48af	0.13601945
50	0x3e07571a	0.1321682
51	0x3d51c68c	0.05121474
52	0xbd7a8f0a	-0.06117157
53	0xbdadf981	-0.08494855
54	0x3df7c73d	0.120985486
55	0x3dcbc6a6	0.099499986
56	0x3e22ce82	0.15899089
57	0x3e07a0bb	0.13244908
58	0x3da99bd3	0.08281674
59	0x3e66b8f6	0.22531494
60	0x3d3a4005	0.04547121
61	0xbd4dd9eb	-0.05025665
62	0x3dffcd29	0.12490303
63	0x3d4d10c6	0.050064825
64	0x3d1cabbd	0.03824972
65	0x3e62413a	0.22095194
66	0x3d9b9289	0.07596309
67	0xbd95ba42	-0.073109165
68	0x3daae254	0.0834395
69	0x3ca684d0	0.020327002
70	0x3e1c9331	0.15290524
71	0xbdaa2b98	-0.08309096
72	0x3c18e5f6	0.009332171
73	0x3e056431	0.13026501
74	0xbdb8d294	-0.090245396
75	0x3c6d03fb	0.014466281
76	0xbd2668c3	-0.040627252
77	0x3de2ac5c	0.11068031
78	0xbe1f5d6e	-0.15562984
79	0xbd3b5997	-0.045739736
80	0x3e6bcb8b	0.23026864
81	0x3aa6ca75	0.0012725132
82	0x3de8ddb3	0.11370411
83	0x3be3a2fb	0.006946919
84	0xbcca76c3	-0.024714833
85	0x3d27bd20	0.040951848
86	0xbd50f7ae	-0.051017456
87	0xbd4a9bd1	-0.049465004
88	0x3cd0f91c	0.02550941
89	0x3e6cd7a0	0.2312913
90	0xbe08b80d	-0.1335146
91	0x3ced0b4a	0.028936047
92	0x3e97239e	0.2951936
93	0xbcb3f6f3	-0.02196834
94	0xbca9cf94	-0.020728864
95	0x3e126192	0.14295033
96	0x3d9f1b87	0.07768922
97	0x3dd742ff	0.10510825
98	0xbd120966	-0.035653494
99	0xbda6cbd0	-0.08144343
100	0xbac5262a	-0.0015041281
101	0x3dc5c078	0.09655851
102	0x3db0efdd	0.086395
103	0x3dd3d642	0.10343601
104	0xbca3db1d	-0.020001942
105	0x3e20beb7	0.15697752
106	0x3e131eb8	0.14367187
107	0x3d2bdd63	0.041959178
108	0x3d08d9da	0.033410884
109	0x3d9bb023	0.07601955
110	0x3dffdb11	0.124929555
111	0xbde15a10	-0.11003506
112	0xbc39fc9f	-0.0113517335
113	0x3d82740e	0.06369792
114	0x3d9e506c	0.07730183
115	0xbd512dba	-0.051069
116	0x3dd34427	0.103157334
117	0xbd9fc9d9	-0.07802171
118	0x3d3a2498	0.045445055
119	0xbd504655	-0.050848324
120	0x3aee1fcf	0.0018167439
121	0x3df0ee7a	0.11764236
122	0xbd37bbe1	-0.04485691
123	0x3d557200	0.052110672
124	0xbd02f7a8	-0.031974465
125	0x3dedb00a	0.116058424
126	0xba4575c6	-0.0007532503
127	0xbd8b858b	-0.06812581
128	0x3e574569	0.21022572
129	0x3c4a8752	0.012361364
130	0x3e160a6c	0.14652413
131	0x3da76a46	0.08174567
132	0x3e5e37b3	0.21700935
133	0x3d0b3038	0.03398153
134	0x3d7f559b	0.0623375
135	0x3abadeb8	0.0014257049
136	0xbce04776	-0.027377825
137	0x3da64af7	0.08119767
138	0xbc1725f9	-0.009225362
139	0xbdd58b7e	-0.10426997
140	0x3d182dab	0.037152927
141	0xbba9965c	-0.005175395
142	0x3cacda88	0.021100298
143	0x3e39efe1	0.18157913
144	0xbcae9965	-0.021313379
145	0xbdd0f65c	-0.10203239
146	0x3e219a4c	0.15781516
147	0xbc61b346	-0.013775652
148	0x3d89e270	0.06732643
149	0xba9c6bad	-0.0011933945
150	0x3cabcc2b	0.020971378
151	0xbdeeaa46	-0.11653571
152	0x3dc1dfc3	0.09466507
153	0xbd03db80	-0.032191753
154	0xbdc1fc92	-0.09472002
155	0x3e275ae4	0.16343266
156	0x3e1be60f	0.15224479
157	0x3dac0329	0.0839904
158	0xbdebb5ba	-0.11509271
159	0xbdce1d44	-0.10064176
160	0x3e23a6ac	0.15981549
161	0x3d54710a	0.051865615
162	0xbdd17df1	-0.102290995
163	0x3c98fa72	0.01867411
164	0x3e079a50	0.1324246
165	0x3e2a8653	0.16652803
166	0x3c9c40d0	0.019073874
167	0x3d24aadb	0.040202003
168	0x3c1e562b	0.009664099
169	0x3e2b5d66	0.16734847
170	0xbe2227f5	-0.15835555
171	0x3e467f17	0.19384418
172	0xbcfeea54	-0.031117596
173	0xbe2331bf	-0.15936945
174	0xbe0b031d	-0.13575406
175	0xbdee1a70	-0.11626136
176	0x3e054d5b	0.1301779
177	0x3da410c6	0.08011012
178	0x3e01ba96	0.12668833
179	0x3e5c1bd1	0.21494986
180	0xbe23e74c	-0.16006202
181	0x3de27697	0.110577755
182	0xbcb9f0d8	-0.022697851
183	0x3de1a7b1	0.11018313
184	0xbe4b4954	-0.19852191
185	0x3e06a876	0.131502
186	0x3da80420	0.08203912
187	0x3dda7821	0.10667444
188	0xbd8ae90b	-0.06782731
189	0xbe4d187d	-0.20028873
190	0x3b334163	0.0027352206
191	0xbe2fa8db	-0.17154257
192	0x3e403527	0.18770276
193	0xbdd49744	-0.10380414
194	0xbbf18c0d	-0.0073714317
195	0xbcc165b6	-0.02360807
196	0xbcf7e12f	-0.030258743
197	0x3d050c46	0.032482408
198	0xbde11afe	-0.109914765
199	0x3e351e6c	0.17687386
200	0xbe0cd14a	-0.13751712
201	0x3e42ddff	0.19029997
202	0x3e817a6b	0.2528871
203	0xbc5e53c9	-0.013569781
204	0x3d1f42b3	0.03888197
205	0x3db2de79	0.087338395
206	0xbbc7b01f	-0.0060939933
207	0xbd3909f6	-0.045175515
208	0xbd82b593	-0.06382289
209	0x3d907553	0.07053628
210	0x3e1d91e2	0.15387681
211	0xbda46356	-0.08026759
212	0xbe2c3c57	-0.16819893
213	0x3d86a1a2	0.06573798
214	0xbe3178ad	-0.1733119
215	0xbe1593ac	-0.14607114
216	0x3e4403ac	0.19142026
217	0x3db94cda	0.090478614
218	0x3dedab86	0.11604981
219	0xbe213a50	-0.157449
220	0x3e0df408	0.13862622
221	0x3e2ab962	0.1667228
222	0x3e12592a	0.14291826
223	0xbc0bebd8	-0.008540116
224	0x3e7685a4	0.24074417
225	0xbdfdfaba	-0.12401338
226	0xbbec4a17	-0.0072109806
227	0xbe1092e8	-0.1411854
228	0x3c790153	0.01519807
229	0x3dc13013	0.094329976
230	0x3ce502b5	0.027955392
231	0xbcbd2d3b	-0.023092857
232	0xbe0740d7	-0.13208328
233	0x3e5f181b	0.2178654
234	0xbc96756b	-0.018366536
235	0x3e6e4cc6	0.23271474
236	0xbda7b135	-0.081880964
237	0x3dc4219f	0.09576725
238	0xbe3d95a2	-0.18514112
239	0x3e62736a	0.2211434
240	0xbdeaa07b	-0.114563905
241	0xbd563382	-0.052295215
242	0xbd213dbe	-0.039365523
243	0xbd5149f7	-0.05109593
244	0xbde4aa25	-0.11165265
245	0xbd311dad	-0.04324119
246	0x3cfdda72	0.030987952
247	0xbe360a30	-0.17777324
248	0x3d6a33ad	0.057178188
249	0xbdfd81d0	-0.123782754
250	0xbd4b1222	-0.04957784
251	0x3d6ac707	0.057318714
252	0xbdd7ab6c	-0.10530743
253	0x3e22565e	0.15853259
254	0x3e5432f2	0.20722559
255	0xbd4a2ee7	-0.049361136

network.4.bias f4 [16]
0	0xbdc11d42	-0.094294086
1	0xbd355320	-0.044268727
2	0xbd81782c	-0.06321749
3	0xbc9e0679	-0.019290196
4	0x3d39f28c	0.045397326
5	0xbde5ca58	-0.11220235
6	0xbc81877e	-0.015811678
7	0x3ded0d55	0.115748085
8	0x3d2ec4f1	0.042668287
9	0x3d6a705c	0.05723606
10	0xbd8c18ea	-0.068406895
11	0x3d8ca399	0.06867141
12	0x3d4c0938	0.04981348
13	0x3e10db25	0.14146097
14	0x3be0ed5c	0.006864233
15	0x3d1f9cc4	0.038967863

network.6.weight f4 [100, 16]
0	0xbbcc6c4f	-0.0062384973
1	0xbdf4a302	-0.11945154
2	0xbdbf30b9	-0.09335465
3	0x3e201b1a	0.15635338
4	0x3bc6f707	0.0060719284
5	0xbc905e03	-0.017622953
6	0x3e2ad5db	0.16683142
7	0xbd892af5	-0.066976465
8	0x3ddbea19	0.1073801
9	0x3d8ed88c	0.06974897
10	0xbe5c8375	-0.21534522
11	0x3db2acda	0.08724375
12	0x3d845988	0.06462389
13	0xbddeb0ec	-0.10873589
14	0xba2189c4	-0.0006162191
15	0xbc3fa43c	-0.011696871
16	0x3c506514	0.012719411
17	0xbde0062a	-0.10938676
18	0x3dcebe2b	0.100948654
19	0xbd7a3b22	-0.06109155
20	0xbe011f79	-0.12609662
21	0x3dbd43cf	0.09241449
22	0xbcca4bcd	-0.024694348
23	0x3cc0b839	0.023525344
24	0x3e1c3857	0.15255867
25	0xbdada997	-0.08479612
26	0xbd86c1d1	-0.06579936
27	0x3dec3d88	0.11535174
28	0x3e4d12d7	0.20026718
29	0x3e102783	0.14077573
30	0xbc251720	-0.010076314
31	0x3c2424a1	0.010018499
32	0x3d57bccb	0.05267028
33	0xbda0f41f	-0.078590624
34	0x3ca98870	0.020694941
35	0xbbd66b5a	-0.006543559
36	0x3d4eb0d4	0.050461605
37	0xbd854284	-0.065068275
38	0x3db42c03	0.08797457
39	0xbcac06b9	-0.0209993
40	0x3d05810b	0.032593768
41	0x3d1e6d0c	0.038678214
42	0xbd9e0bf1	-0.077171214
43	0x3dbe6473	0.09296503
44	0xbe2477bf	-0.16061305
45	0xbcfdaa1d	-0.030964905
46	0x3d317376	0.043323003
47	0x3dc4f318	0.09616679
48	0x3cc085e7	0.02350135
49	0x3cf94b68	0.030431464
50	0x3d0fa776	0.035071813
51	0x3e3ac099	0.18237533
52	0x3e2f9402	0.17146304
53	0xbd34bc96	-0.044125162
54	0x3dc66ce8	0.09688741
55	0xbb0b94e3	-0.002129846
56	0xbcbb91a4	-0.022896595
57	0xbdb50696	-0.08839147
58	0xbe11151c	-0.14168209
59	0x3dc97866	0.09837417
60	0xbe57dbe9	-0.21079983
61	0xbd9c59bc	-0.07634303
62	0x3d39f910	0.04540354
63	0xbdbe3b89	-0.09288699
64	0xbcce9f93	-0.025222575
65	0xbe206881	-0.15664865
66	0x3b02470c	0.0019878773
67	0x3e72ae13	0.23699217
68	0xbdb9fada	-0.09081049
69	0xbe2e3e41	-0.17015935
70	0x3d6ffd70	0.058591306
71	0x3bb68c46	0.005570921
72	0xbdd20226	-0.10254316
73	0x3d92b57d	0.071635224
74	0x3d38a65a	0.04508052
75	0xbe048d47	-0.12944518
76	0xbe3850ad	-0.17999525
77	0xbe211459	-0.15730418
78	0x3d75d53f	0.06001782
79	0x3e648c10	0.22319055
80	0x3d81307c	0.06308076
81	0x3e1a1dbf	0.1505041
82	0x3cf3e13c	0.029770486
83	0x3e349d28	0.17638075
84	0xbd8c0fad	-0.068389274
85	0xbdbf73c3	-0.09348252
86	0x3cb7c8c1	0.022434594
87	0xbd863c55	-0.06554476
88	0xbe202928	-0.156407
89	0x3dabdcd8	0.08391732
90	0xbd437d91	-0.04772717
91	0xbe01e772	-0.12685946
92	0xbdcb43cb	-0.0992504
93	0xbc31945f	-0.010838597
94	0x3de2b653	0.11069932
95	0x3d9dcdd2	0.07705273
96	0xbc8479c5	-0.016171345
97	0x3e53a043	0.20666604
98	0x3e36e49e	0.17860648
99	0xbdfbaa83	-0.12288382
100	0x3e42f96f	0.19040464
101	0xbd76bcb8	-0.06023857
102	0xbe2209c6	-0.15824041
103	0x3e359caa	0.17735544
104	0xbe61368c	-0.21993464
105	0xbe17c8e9	-0.14822735
106	0xbd6726a3	-0.05643333
107	0x3e341fa8	0.17590201
108	0xbe055949	-0.13022341
109	0x3e2107ee	0.15725681
110	0x3e01bbaf	0.12669252
111	0xbda20727	-0.079115205
112	0x3e789ea3	0.24279265
113	0xbc99022c	-0.018677793
114	0xbdde3ac0	-0.108510494
115	0x3e4b3ba1	0.19846965
116	0x3e2eec9e	0.1708245
117	0xbe44cf3a	-0.19219676
118	0xbe2f17cf	-0.17098926
119	0xbd1f8d43	-0.038953077
120	0x3e12d00c	0.14337176
121	0x3e2f1550	0.17097974
122	0xbd9fe6c9	-0.07807691
123	0x3e703643	0.23458199
124	0xbe2c20f8	-0.16809452
125	0x3dde2c25	0.10848264
126	0x3da40c80	0.08010197
127	0xbcd1c672	-0.025607321
128	0x3b0d4256	0.0021554432
129	0xbe198a46	-0.14994153
130	0x3da36a54	0.07979265
131	0x3e267a3e	0.16257569
132	0xbd72fc0c	-0.059322402
133	0xbe511ecf	-0.20421909
134	0xbda2f82d	-0.07957492
135	0x3ddeda59	0.1088149
136	0x3daf1ec4	0.0855079
137	0x3d5f7bb8	0.054561347
138	0x3d899bfd	0.067192055
139	0xbc6246ad	-0.013810796
140	0xbd638a23	-0.05555166
141	0xbcdb7d0b	-0.026793024
142	0x3da43541	0.0801797
143	0x3e67bf6f	0.2263162
144	0xbda90aed	-0.08254037
145	0x3da82c77	0.08211606
146	0x3da10d61	0.0786388
147	0xbe170e03	-0.14751439
148	0x3e120ba8	0.14262259
149	0xbe2a741b	-0.16645853
150	0xbdb7e59e	-0.08979343
151	0x3e2b7ef7	0.16747652
152	0x3e2ca0c7	0.16858207
153	0xbc6239bf	-0.013807713
154	0x3dfe69a8	0.12422496
155	0x3c973761	0.018459024
156	0x3e06dd4b	0.13170354
157	0xbc941218	-0.018075034
158	0x3dea2171	0.1143216
159	0x3e1d7fce	0.15380785
160	0x3e1a2f5b	0.15057127
161	0x3ce2f271	0.027703496
162	0x3e48d066	0.19610748
163	0xbce3458d	-0.027743125
164	0x3e402ac2	0.18766311
165	0xbdb49f3a	-0.088194326
166	0xbdc8fcf9	-0.09813876
167	0x3dce06e0	0.10059905
168	0xbe575673	-0.21029072
169	0xbdb0b5e9	-0.086284466
170	0x3db59bf8	0.08867639
171	0x3e2e2bec	0.17008942
172	0xbe3fe50c	-0.18739718
173	0x3dffd938	0.12492603
174	0x3d1da270	0.03848499
175	0x3cfdf400	0.031000137
176	0x3dd81ffc	0.105529755
177	0xbd00d387	-0.03145173
178	0xbd46b4a5	-0.04851212
179	0xbe2eb4c2	-0.17061141
180	0x3e5005e0	0.20314741
181	0xbe33f9f6	-0.17575821
182	0xbe5e4c12	-0.21708706
183	0x3dec963e	0.11552094
184	0xbe012859	-0.12613048
185	0x3e08f785	0.13375671
186	0x3dd41508	0.10355574
187	0x3e7ed452	0.24885681
188	0xbe134a97	-0.14383923
189	0x3e04e137	0.12976538
190	0x3d5c0613	0.05371673
191	0x3dbcfd8b	0.09228047
192	0x3e89e803	0.26934823
193	0x3e44d376	0.19221291
194	0x3d471b3e	0.048609965
195	0x3e3740e9	0.17895855
196	0x3e858e1a	0.26084977
197	0xbc0c2035	-0.008552601
198	0x3de56408	0.1120072
199	0xbe024491	-0.12721469
200	0xbe7450c6	-0.23858938
201	0x3c0e8781	0.008699299
202	0xbcc651e8	-0.024208978
203	0x3dc4d216	0.09610383
204	0x3e2c7c01	0.16844179
205	0x3c7e85f6	0.015534868
206	0xbc61d6b6	-0.013784101
207	0xbe0dcb8d	-0.1384718
208	0xbc81fe34	-0.015868284
209	0x3e7d202c	0.24719304
210	0x3d24569a	0.040121652
211	0xbd8bc31c	-0.068243235
212	0x3c8929bb	0.016743531
213	0x3bfb0ec6	0.0076616732
214	0x3c92b037	0.017906291
215	0x3d043ec6	0.032286428
216	0x3d2d7883	0.042351257
217	0x3d79bca9	0.060970936
218	0xbb8cc694	-0.0042961333
219	0xbd1c4df0	-0.038160264
220	0x3deb30d4	0.114839226
221	0x3d4bfb16	0.0498
222	0x3d123a53	0.035700154
223	0xbc353728	-0.011060514
224	0x3e57a492	0.21058872
225	0xbd0362ef	-0.032076772
226	0x3e3bb16d	0.18329401
227	0x3e71d6c1	0.23617078
228	0xbe6aebc4	-0.229415
229	0x3dbbdc0f	0.09172832
230	0x3cc9eb60	0.024648368
231	0xbd6b8bc2	-0.05750633
232	0xbe667d9a	-0.2250885
233	0x3d1574fb	0.036488514
234	0x3bae8fc8	0.0053271987
235	0xbcba4752	-0.022739086
236	0x3d3e880a	0.046516456
237	0x3e2f3d54	0.17113239
238	0xbdc0cb10	-0.09413731
239	0x3bcf228b	0.0063212565
240	0xbc9d1fb4	-0.019180156
241	0x3e8532a1	0.2601519
242	0x3e2aa7ae	0.16665527
243	0xbdb90f9f	-0.090361826
244	0xb93a91f0	-0.00017792708
245	0xbd69aafe	-0.057047836
246	0xbe3685bd	-0.17824455
247	0x3e753eaa	0.23949686
248	0xbdd9bcb2	-0.10631694
249	0x3dd8be51	0.10583175
250	0xbde055b4	-0.109538466
251	0x3dd7e9d4	0.10542646
252	0x3c152a2e	0.009104295
253	0x3e6267c2	0.22109893
254	0x3d0e3f9e	0.03472864
255	0xbd8ea96a	-0.06965907

network.6.bias f4 [100]
0	0x3d9466bf	0.0724616
1	0x3ddbe589	0.1073714
2	0xbdccbff5	-0.099975504
3	0x3dc0c221	0.09412027
4	0x3e8f3629	0.27971008
5	0x3d8d8c15	0.06911484
6	0x3c6f61e4	0.014610741
7	0xbd0803d4	-0.033206776
8	0x3e85bc3f	0.26120183
9	0x3e9e7ccb	0.30954584
10	0xbda7ca74	-0.08192912
11	0x3e290cbd	0.16508766
12	0xbd413f50	-0.04717952
13	0x3ec137d6	0.37737912
14	0x3e0c2174	0.13684636
15	0xbdc8e317	-0.09808939
16	0x3e9e03f0	0.3086238
17	0xbdbe6753	-0.09297051
18	0x3e222af3	0.15836696
19	0xbdbfecf4	-0.09371367
20	0xbd3d2cc3	-0.046185266
21	0xbdd430a7	-0.10360842
22	0xbd9e3657	-0.07725208
23	0x3d91dc0b	0.07122048
24	0x3d88c9d4	0.06679121
25	0x3bcb3706	0.0062016277
26	0xbe5be8f2	-0.2147558
27	0x3d1cca1d	0.038278688
28	0xbe5ba032	-0.21447828
29	0xbd72f79c	-0.05931817
30	0xbe86193f	-0.26191136
31	0xbcbdf138	-0.023186311
32	0x3ce77f7b	0.02825903
33	0xbe5d1fb9	-0.21594132
34	0x3d9d24aa	0.07673009
35	0xbdbbaef5	-0.0916423
36	0x3ddd04be	0.1079192
37	0xbd1dd3f5	-0.038532216
38	0x3e0da75d	0.13833375
39	0x3df5db5f	0.12004732
40	0x3e4d04a3	0.200213
41	0x3dba3013	0.09091201
42	0x3e0b52a5	0.13605745
43	0x3eb8d77b	0.361019
44	0x3d115f78	0.035491437
45	0x3e025332	0.12727049
46	0x3e01237f	0.12611197
47	0x3e558b0b	0.20853822
48	0x3ca86249	0.020554679
49	0x3cdce340	0.02696383
50	0x3d351fb8	0.044219702
51	0x3e3cee67	0.18450318
52	0x3e00119f	0.12506722
53	0x3d8c3517	0.068460636
54	0xbe989600	-0.2980194
55	0x3d966a14	0.073444515
56	0xbe5f2fdf	-0.21795605
57	0x3e165a5c	0.14682907
58	0x3e051589	0.12996496
59	0xbe62b95d	-0.22141023
60	0xbb57ea63	-0.0032946102
61	0xbe4e2d66	-0.20134506
62	0xbd8397be	-0.06425427
63	0x3dbdf9a7	0.09276133
64	0x3e7b48a0	0.24539423
65	0x3df748d4	0.12074438
66	0xbdb70d2d	-0.0893806
67	0xbe5249b9	-0.20535935
68	0xbc95c90c	-0.018284343
69	0xbdb2bfea	-0.08728011
70	0xbddbd324	-0.10733631
71	0x3e4e8c8a	0.20170799
72	0x3e2ad525	0.1668287
73	0x3de761f4	0.1129798
74	0x3daeeb28	0.08540946
75	0x3d31e2bf	0.043429133
76	0xbd67d636	-0.05660077
77	0x3e609242	0.21930793
78	0xbca81a28	-0.020520285
79	0xbd0e800f	-0.034790095
80	0x3c430448	0.011902876
81	0x3e8c92e8	0.2745583
82	0x3d020c3c	0.03174995
83	0x3d0fdc3b	0.035122138
84	0x3af258a3	0.001848955
85	0xbded9f20	-0.11602616
86	0x3e49f9d5	0.1972421
87	0x3e594254	0.21216708
88	0x3eac23db	0.33621106
89	0xbdd45cd6	-0.103692695
90	0xbc08d94e	-0.008352591
91	0xbb580f6b	-0.0032968174
92	0x3e628dd4	0.22124416
93	0x3e2a6ec5	0.16643818
94	0xbcbfa81f	-0.023395596
95	0x3d2a2ec4	0.041548505
96	0x3e07cf8b	0.13262765
97	0xbd458f9b	-0.048232656
98	0xbe0c1c37	-0.13682638
99	0xbe661391	-0.22468401
