mlp_breakpoints.pt (torch, 46432 bytes, 8 tensors)

network.0.weight f4 [64, 100]
000000 fe 12 6d 3d 2a de 15 3e 5d 1c 03 3d 33 e8 b6 3c
       0.05787944 0.1463553 0.03200947 0.022327518
000010 26 7f 36 3e b6 4c 82 3d 99 72 1b 3e 6b 74 2f 3e
       0.17821941 0.06362288 0.15180434 0.17134254
000020 83 7f 0c 3d 20 64 e8 3d ff 4d ea 3d 6f d0 87 3d
       0.034301292 0.11347222 0.11440658 0.066315524
000030 27 a1 06 3e d8 9f da 3d 52 be 15 3e 80 24 2b 3e
       0.13147412 0.10675019 0.14623383 0.16713142
000040 50 4c 89 3d 23 fc 00 3e 41 a1 85 bc d7 e4 31 3d
       0.067040086 0.12596183 -0.016312243 0.04343113
000050 1a b2 de bb 75 77 6e 3c 2e ca bd bd c4 f3 c7 bd
       -0.0067961337 0.014554848 -0.09267078 -0.097632915
000060 df 17 27 be b7 77 cf bc 77 9d 28 be 67 66 3d be
       -0.163177 -0.02532564 -0.16466318 -0.18496095
000070 4b c5 4a bd 44 1f 29 3b 73 25 16 be ff 02 25 be
       -0.04950456 0.002580599 -0.14662723 -0.16114424
000080 67 cf 34 be c9 e1 7d 3b bd 02 b4 bd a8 2b 73 bd
       -0.17657243 0.0038739315 -0.08789585 -0.059367806
000090 2e fa eb bd 3c 43 53 bc 5b f6 a8 bd c3 15 f7 3c
       -0.11522327 -0.012894448 -0.082501136 0.030161744
0000a0 e0 f9 08 be bb 38 c4 3b 4e f3 94 3d d6 bd 9a bd
       -0.1337657 0.005988208 0.07272969 -0.075557396
0000b0 93 97 53 bd 5b a3 f9 3c cc e6 db 3d 8c c6 71 3b
       -0.051658224 0.030473402 0.107373804 0.0036892025
0000c0 13 96 bf 3d 2d 6d 21 3d c5 6c c1 3d 30 c5 ba 3d
       0.09354796 0.03941076 0.09444574 0.09119642
0000d0 ce da ac bc b1 0c 45 3c ca f8 f3 3d 60 5c 84 3d
       -0.021100428 0.012026952 0.11912687 0.06462932
0000e0 67 34 a8 3c e3 c1 1e 3e 6d d3 20 3d aa 04 93 3d
       0.0205328 0.1550365 0.03926413 0.07178624
0000f0 a5 20 14 3e 60 27 3e 3d 35 d8 1a 3d a3 01 8c bc
       0.14465578 0.04642427 0.037803847 -0.017090624
000100 1a 6c 8d bd 6c 08 2a bc de b8 a8 3d 02 e6 ae 3c
       -0.06905384 -0.0103779845 0.082383856 0.02134991
000110 87 3a 1c 3d ac 61 8b 3b 12 13 89 3d 08 16 ed 3d
       0.038141754 0.0042535868 0.066930905 0.11576468
000120 28 b8 9b bd 59 91 b6 3d c7 3d d8 bc 3c d1 6a bd
       -0.076034844 0.089144416 -0.026396645 -0.057328448
000130 ef 4b d0 3d a3 79 4a bd e1 5c f4 3c 21 74 bb bd
       0.10170733 -0.049432408 0.029829444 -0.09153009
000140 3d 69 ac bd 11 5c 05 3d ce bb a4 bd 9c 0d 3e 3d
       -0.0841851 0.032558504 -0.080436334 0.046399698
000150 6e ba 08 3d d5 3e 9c 3c 94 56 e9 bd 6b 81 05 bd
       0.03338092 0.01907293 -0.113934666 -0.032594126
000160 e7 3e da bc c6 c9 19 bd 6c 10 21 be ed d7 d5 bd
       -0.026641322 -0.03754594 -0.1572892 -0.10441575
000170 1d dd 9d bd ec 63 d7 bd 39 c9 db bd 7c 26 cd bd
       -0.0770819 -0.105171055 -0.107317396 -0.10017106
000180 5e 1d 81 3c 5c a7 22 3d 96 26 f9 bc 50 ce ee bb
       0.015761074 0.039710388 -0.030413907 -0.007287778
000190 40 25 3c 3d 6e 02 60 3d a2 b4 8d 3d 81 f1 04 3e
       0.045933962 0.054689817 0.069192186 0.12982751
0001a0 47 7b ed 3d 5d 56 54 3c a3 99 38 3e b7 2a 11 3d
       0.11595779 0.012960044 0.18027358 0.035441127
0001b0 f9 56 d8 3d be 41 87 3d 78 2b 2c 3c 0b a8 01 3e
       0.10563464 0.06604336 0.010508411 0.1266176
0001c0 fb ce 34 3c 9f b9 27 3e 52 2b 29 3e d2 b2 0a 3e
       0.011035676 0.16379403 0.16520432 0.13544777
0001d0 2a eb b9 3d 80 e7 b3 3d a0 45 18 3d a0 2c e3 3c
       0.09078057 0.087843895 0.037175775 0.02773124
0001e0 c8 be 21 bc 6e 3a b4 3d bd 2d a6 3d 9b 18 57 bd
       -0.009872146 0.08800207 0.08114193 -0.0525137
0001f0 eb d0 e2 bd a9 2d bb bd 3c ce ea bd 96 90 21 be
       -0.11075004 -0.09139568 -0.11465117 -0.15777811
000200 a2 b1 02 be 9c 13 23 be d2 f3 95 bd 51 99 1a bd
       -0.12763074 -0.15925449 -0.07321896 -0.03774387
000210 1a 87 52 bd 1a 06 10 be cc 5c de bd c1 3f 78 3c
       -0.051398374 -0.14064828 -0.10857543 0.015151919
000220 78 56 72 3b 53 c3 48 bd 4d 68 60 bc 94 e5 1b be
       0.003697781 -0.0490144 -0.013696742 -0.15224296
000230 c8 e8 04 bd f4 9c ed bd 68 f8 fb bd 82 dc 02 be
       -0.03244856 -0.11602202 -0.12303239 -0.1277943
000240 d7 d8 00 3d e4 12 cd bb c8 bb b0 bc c2 e2 10 be
       0.031456795 -0.0062583555 -0.021573916 -0.14149001
000250 db fc 5e bd 16 40 67 3d 98 d5 fd bc e2 e6 4a bd
       -0.05444036 0.0564576 -0.030985638 -0.049536593
000260 b0 06 48 3d 97 4e 51 3d 4f 39 b2 bc db c3 1e bd
       0.048834503 0.05110034 -0.021755842 -0.038761
000270 b1 26 cf 3d a2 9d 23 bd b1 91 2e 3d d3 ad 93 3d
       0.10114802 -0.039945252 0.04261941 0.07210889
000280 f4 b7 b1 bc 8c f5 a7 bc 82 87 82 3d 7b 98 11 3e
       -0.021694161 -0.020502828 0.06373502 0.14218323
000290 8a e8 84 3c 5a 0e 0a 3e a1 81 42 3d 6d cc 26 3e
       0.016224165 0.13482037 0.047486905 0.1628892
0002a0 0e 53 00 3e 2c 20 d6 3d 04 51 6f 3c 4a e4 1c 3d
       0.12531683 0.10455355 0.014606718 0.03830365
0002b0 71 15 e1 3d 09 ba 2a 3e 64 4f 16 3e 0f 3a d8 3d
       0.10990418 0.1667253 0.14678723 0.10557949
0002c0 e0 a6 95 3d 82 12 5c bc dc 31 e7 3d c7 8c 23 bd
       0.073072195 -0.013432147 0.11288807 -0.039929178
0002d0 3d 4d 18 3d 3c 80 87 3c d9 e2 a7 3c 59 49 9f bd
       0.037183035 0.01654064 0.020493912 -0.07777662
0002e0 46 94 d4 3c e8 8c 1e be 23 fa 58 bd 90 61 5b 3a
       0.025949609 -0.15483439 -0.052972924 0.0008368725
0002f0 dd d7 1e be d6 23 ba bd 6c ad 2e be c7 04 ba bc
       -0.15512033 -0.090888664 -0.17058343 -0.022707356
000300 08 23 f0 bd 22 30 10 be 9e ae 02 bd 3f b9 5b bd
       -0.11725432 -0.14080861 -0.03190481 -0.05364346
000310 b8 a7 77 bd e3 fb 32 be 6f d2 28 be 55 55 88 bd
       -0.060462683 -0.174789 -0.16486524 -0.06656901
000320 b4 ee e9 3c fe c6 27 3e 97 6a e9 bc 8f 9d 15 3e
       0.028556205 0.16384503 -0.028493209 0.14610885
000330 3d 48 49 bc 12 ff 11 3e 2f a1 46 3d 8b f4 08 3e
       -0.012285289 0.14257458 0.04849356 0.13374536
000340 81 9c 32 bc da c3 12 3e ab 88 26 3e 91 ab 1b 3d
       -0.010901571 0.14332524 0.16263072 0.038005415
000350 d8 1b 8b bb c6 97 02 3e a9 80 16 3e 5b a5 b3 3d
       -0.0042452626 0.1275321 0.14697517 0.087717734
000360 33 1d d9 3c 03 1f 01 3e c1 37 22 3e 8b 2c 18 3e
       0.026503181 0.12609486 0.15841581 0.14860742
000370 3a 43 d2 3d d9 48 d3 3c 76 c9 78 3c 63 c3 39 bc
       0.10266729 0.025791572 0.015184751 -0.011338088
000380 a3 12 10 3d ca 74 31 3d 13 17 af 3d 63 6e 4d bd
       0.035174023 0.04332427 0.08549323 -0.0501541
000390 fd 6f f2 3c 31 1a a0 bd ca 61 73 3d 02 c3 c0 3c
       0.029594416 -0.078174956 0.05941943 0.023530487
0003a0 fa 4a 82 3c 0f 2e 04 be 07 bd 25 3d 7d 15 1c bd
       0.015904892 -0.12908195 0.040463474 -0.03810643
0003b0 01 46 0e 3d ec 70 bc bd b8 f1 16 3d b1 5e 13 3c
       0.03473473 -0.09201226 0.036851615 0.008994744
0003c0 76 ce ee 3c 9e 34 7f bd 69 70 45 3c 6f d5 80 bd
       0.029151183 -0.06230604 0.012050726 -0.06290709
0003d0 5c 5a 62 bd 09 47 2a bd 7c 83 93 bd 91 24 83 3a
       -0.055261955 -0.04157165 -0.07202813 0.0010005404
0003e0 2d c6 d6 bd 81 89 a3 bc 96 6d e0 bd 49 2c 18 be
       -0.10487018 -0.019963028 -0.10958402 -0.14860643
0003f0 21 f8 02 3c 4e 54 e4 3c 69 49 16 be 4e b2 1b be
       0.007993729 0.02787223 -0.14676441 -0.15204737

network.0.bias f4 [64]
000000 d1 4f 7f 3c 9f 3a 1c 3d c9 8b 66 3d 06 72 f7 bb
       0.015582995 0.038141843 0.056285653 -0.0075514344
000010 b3 31 bf 3d 9a 35 44 3b 15 f0 30 3e 79 89 38 3e
       0.09335651 0.0029939176 0.17279084 0.18021192
000020 53 8c b8 3d 9c f0 5e 3d 09 41 9d 3d cb 1a 17 3e
       0.0901114 0.05442868 0.0767842 0.14756314
000030 01 3f dd bc de a6 24 3e f8 59 0d 3e 02 f4 b7 bc
       -0.027007582 0.1607928 0.13803852 -0.02245522
000040 91 03 10 3d 05 1e 2c 3e c9 29 5a 3d 3b bd 1a bb
       0.03515965 0.16808327 0.053262506 -0.0023611325
000050 1d c3 ec 3b fb c3 91 3d cb 34 35 3e a0 a2 65 3d
       0.0072254078 0.071174584 0.1769592 0.056063294
000060 f8 e2 e7 3d 56 70 4e 3d af f2 df 3d a8 57 c4 3d
       0.11322588 0.0504001 0.1093496 0.095870316
000070 a4 37 0c 3e 77 18 5f 3d 56 72 bc 3d 1e f3 ea 3d
       0.136931 0.05446669 0.09201495 0.11472152
000080 84 00 ee bd 5b fd 28 3e c6 9c 3c 3e f1 7c c5 bd
       -0.11621192 0.16502897 0.1841918 -0.09642971
000090 0b 92 a1 3c 76 86 bc 3d c8 a1 aa 3d de ce 4e 3d
       0.019722959 0.09205334 0.083316386 0.050490253
0000a0 43 c8 92 3d 7d da 2e bc a5 73 76 3d 00 e8 05 3b
       0.07167103 -0.010672209 0.06016888 0.0020432472
0000b0 11 dc 23 3e f6 e4 fb 3d 29 22 27 3d de 4f ff 3c
       0.16001917 0.1229953 0.040804062 0.031166013
0000c0 48 31 fd 3c ca 7d 9b bc 10 34 34 bd 87 f2 30 3d
       0.030907288 -0.01898088 -0.043994963 0.043200042
0000d0 1e 32 e5 3d dd 6b 1c 3d 3d 71 15 3e 57 f2 32 3e
       0.111912 0.038188804 0.14593978 0.17475258
0000e0 2d 78 e7 bd fc c0 1f 3e c5 9c 11 3e ff 1b f6 3d
       -0.113022186 0.15600961 0.14219959 0.120170586
0000f0 b6 22 3a 3d 56 13 a7 3d a1 69 77 3d dc 45 1c bd
       0.04544326 0.08157985 0.06040347 -0.03815256

network.2.weight f4 [32, 64]
000000 fc 5d 62 3d e5 fe ed 3d 89 9b b4 3d 5c 65 12 3e
       0.05526541 0.11620883 0.088187285 0.14296478
000010 4b e4 48 3e 4e 74 38 3d a0 b4 50 3d cb 28 5b 3d
       0.19618337 0.04503279 0.050953507 0.0535057
000020 70 59 14 3e a3 54 0e 3e e0 a5 2b 3d 39 1a 4f 3e
       0.14487243 0.13899474 0.041906238 0.20224847
000030 37 ce 68 bc 69 75 bb bc 4b c8 06 bd c6 7e 1c 3d
       -0.014209322 -0.022883134 -0.032905858 0.038206838
000040 4e 60 0b 3c 64 68 42 3e 38 38 12 3e 1e b2 5f bd
       0.008506848 0.18985134 0.14279258 -0.054613225
000050 0b ea 16 bd a9 3a 74 3b 5f e0 63 3d 2f e0 63 3c
       -0.036844295 0.003726641 0.0556339 0.01390843
000060 ac 82 5b 3e dd 76 3e 3d 48 dd 30 3e b7 0f 37 3e
       0.21436566 0.046500076 0.17271912 0.17877088
000070 92 6f 4c 3e ce 78 dc 3d 8a 9c 37 3e 0f 21 e3 3d
       0.19964436 0.10765229 0.17930809 0.1109029
000080 99 cc f0 ba 50 c5 fd bb 5e 66 57 3e 4b 11 62 bc
       -0.0018371522 -0.0077444687 0.21035144 -0.013798068
000090 02 85 d4 3d 49 ae 2d 3e 64 c8 0f 3e d4 06 2b 3e
       0.10376932 0.16961016 0.14041287 0.16701823
0000a0 fa 1f 5d 3e 95 b2 38 3e 2a 42 b2 3d 25 e6 56 3e
       0.2159423 0.18036874 0.08704026 0.2098623
0000b0 1f d7 5d 3d e5 83 ef 3d 75 7e cf 3d 65 61 2e 3d
       0.054160234 0.11695079 0.10131542 0.04257335
0000c0 fc 4b 5d 3d d4 13 47 3e a0 97 9b 3d 84 8c eb 3d
       0.054027542 0.19441158 0.075972795 0.115014106
0000d0 f4 8f 28 3d cd 8c 64 3d d7 2f b1 3b 57 7a fe 3d
       0.04115291 0.05579834 0.0054073143 0.12425678
0000e0 78 c0 a8 3d 1d 8b ea bb 78 70 1f 3e 46 f1 e1 3d
       0.082398355 -0.007157697 0.15570247 0.110323474
0000f0 5e 9f 32 3e 08 bf 25 3e 4b 0e 86 bd c2 b6 98 3c
       0.17443606 0.16186154 -0.06545695 0.018641833
000100 b6 4a b9 3d 35 f1 dc 3d 55 e6 12 3e 73 a2 a8 3d
       0.09047453 0.10788194 0.14345677 0.0823411
000110 29 4c 8d 3c 75 ab 1d bd 21 29 03 3c 23 5a 52 3d
       0.01724823 -0.038493592 0.008005411 0.051355492
000120 59 e0 13 3e bd a1 07 3e 8f 24 0a 3e b2 34 cc bc
       0.1444105 0.13245292 0.13490508 -0.02492747
000130 cc 67 c8 bd 1b f7 3b 3d 2b 61 0e 3d b4 e7 d8 bd
       -0.09785423 0.045889955 0.034760635 -0.10591069
000140 34 55 d9 3c 97 2f 93 3d b0 41 07 3e f9 3b 23 bc
       0.026529886 0.071868114 0.13208652 -0.009963029
000150 d7 1e 8d 3c d5 8d 04 bc 1d be c4 3d f4 60 c4 3d
       0.01722662 -0.008090456 0.09606574 0.09588805
000160 51 84 09 3e 63 70 a3 bc 44 82 42 3d e2 84 2b 3e
       0.13429381 -0.019951051 0.047487512 0.1674991
000170 e6 be 0f 3e e4 7f 33 3e 78 de f1 bb 58 cd 15 3e
       0.14037666 0.17529255 -0.0073812567 0.14629114
000180 0d b7 86 bc 8c 7a b2 3d 9c cd 3b 3e 9e a5 92 bc
       -0.016444707 0.0871478 0.18340153 -0.017901238
000190 46 cc c3 bc 03 0a 42 3e ac 39 8b 3d d8 cc 80 3d
       -0.023901116 0.18949132 0.067981094 0.06289071
0001a0 b6 a8 2c 3e e5 54 8f 3d 2c 32 44 39 03 2e a3 3d
       0.16861233 0.06998614 0.00018710707 0.079677604
0001b0 8c af fd 3d d7 3c 2a 3e a8 54 29 3e 09 22 e0 3d
       0.123869985 0.16624771 0.165362 0.10943992
0001c0 a8 95 17 3d 02 10 4b 3c a6 36 ee 3d 63 5e a9 3d
       0.037007958 0.012393953 0.11631517 0.08269956
0001d0 57 63 ff 3d c2 51 0e 3e 28 52 07 3e 2e 7c ab 3d
       0.124701194 0.13898376 0.13214934 0.08373295
0001e0 4c 38 8b bd be 67 14 3d f3 7e 97 b9 38 e4 2d 3e
       -0.06797847 0.03623175 -0.0002889555 0.1698159
0001f0 81 7b 63 3e fd 72 28 3e 43 bd ca 3d 20 f0 b1 bb
       0.22215082 0.16450115 0.0989938 -0.0054302365
000200 5b ae 48 3e af 33 f4 ba 1a 5d 42 3d 3c 19 12 3e
       0.19597761 -0.0018631126 0.04745207 0.14267439
000210 ae 96 9c 3d 8f b4 9e 3d ce f9 bf 3d c9 6d f1 3d
       0.07645927 0.077492826 0.09373818 0.11788518
000220 81 07 01 bd d5 a5 05 bc 06 13 ba 3d f2 be 03 3d
       -0.031501297 -0.008157213 0.0908566 0.03216452
000230 6f c3 79 3c 4b 09 c2 3d df 54 81 3c 79 ba a6 3d
       0.015244349 0.09474429 0.01578754 0.081410356
000240 5a bf 8c 3d 23 f0 09 3d bd 20 50 3d 14 67 b3 3d
       0.06872435 0.033676278 0.05081247 0.08759895
000250 93 1e 81 3d f7 d1 5d 3d 1b 90 ee 3d aa e9 c6 3d
       0.0630466 0.054155316 0.1164858 0.09712537
000260 25 7e 1e 3e 51 87 c1 bd 54 35 de 3d 1a b0 eb 3d
       0.15477808 -0.09449638 0.10850015 0.11508198
000270 b5 8e 50 3e 53 7d 39 3e 4a 8c 40 3e c5 a2 2b 3d
       0.20366938 0.18114214 0.18803516 0.041903276
000280 80 a5 e1 3c cc 41 b5 3d dc 0b 4a bd 32 6f ae 3d
       0.027544737 0.088504404 -0.049327716 0.085173026
000290 fc 95 c5 3d bb a1 ff 3d a6 de d8 3d 91 65 9c 3c
       0.09647748 0.124820195 0.10589342 0.0190914
0002a0 b4 d4 53 3e 2a 77 01 3e b4 95 08 3c a4 db 0a 3e
       0.20686609 0.12643114 0.008336473 0.13560349
0002b0 c3 ff 0a 3e 5a cc 1f 3e c1 84 be 3b ac 9c 2c 3e
       0.13574128 0.15605298 0.0058141653 0.1685664
0002c0 e5 9e 69 3d b9 8e d0 bb 20 5a 84 3c 2e f0 f7 3c
       0.0570363 -0.00636467 0.016156256 0.030265894
0002d0 e7 b4 85 bc 85 43 d3 3d 94 56 15 3e 0d 18 94 3c
       -0.016321613 0.10315613 0.14583808 0.018077875
0002e0 1d ed 9d 3d 93 fa 9e 3d df 96 89 bc 36 00 a9 3d
       0.077112414 0.07762637 -0.016795574 0.08251993
0002f0 64 2b 03 3d 38 b3 2d 3e 41 60 f8 3c ec 48 39 3b
       0.032023802 0.16962898 0.030319335 0.0028272225
000300 e8 2a 03 bb 21 3e af 3d 74 33 a0 3d 14 e1 18 3e
       -0.0020014588 0.08556772 0.07822314 0.1492961
000310 f4 4b 49 3e f9 f2 e0 3c 44 49 51 3e e7 80 c5 3d
       0.1965788 0.027459608 0.20438105 0.09643727
000320 0b b7 a0 3d 50 06 d6 3d 94 17 01 bd 1a 87 16 3e
       0.07847413 0.10450423 -0.031516626 0.14699975
000330 c8 31 6d bd 90 a1 b6 3d 54 74 19 3d 72 5b eb bd
       -0.057908803 0.08917534 0.037464455 -0.11492051
000340 7f 51 96 3c 16 ff 86 3d 67 ac cd ba eb 4b 58 3d
       0.018349407 0.065916225 -0.0015691639 0.052806776
000350 d1 76 2c bd 68 75 33 3e bb 64 54 3d 4e 40 02 3e
       -0.0421055 0.17525256 0.051853877 0.12719843
000360 42 dd 47 3e ef 9f 83 3c e4 f1 3d 3c c7 b3 cb 3d
       0.19517997 0.016067473 0.011593316 0.09946399
000370 9b a1 cf 3d 29 29 8c 3d a3 3e f7 3d 45 9b 26 3e
       0.10138246 0.06843788 0.12072494 0.16270168
000380 0c 1d f8 3d aa 0a 33 bc 67 a6 44 3e 8e 59 01 bc
       0.12114915 -0.0109278355 0.19204102 -0.007894887
000390 a4 4b ec bb d5 34 63 3d 50 d9 56 3e c8 39 be bc
       -0.0072111655 0.055470306 0.20981336 -0.023220912
0003a0 39 16 24 3e 78 71 ee 3d f0 4a 9c bc 5c 9b 46 3e
       0.16024102 0.11642736 -0.019078702 0.19395202
0003b0 a5 be 52 3e 96 1a 5b 3e 52 f1 54 3d 01 8b c7 3c
       0.20580538 0.2139686 0.051987953 0.024358274
0003c0 03 ac fa 3d 73 ae 37 3e d8 c2 89 3d 4a 90 03 3e
       0.1223984 0.17937641 0.067266166 0.1284801
0003d0 e9 09 43 3e d5 64 af 3d 1a 62 10 bd a6 1d 61 3e
       0.19046749 0.08564154 -0.035249807 0.21983966
0003e0 33 2e 78 ba a2 9b 1a 3d 8a d7 85 bb 58 19 b5 3d
       -0.00094673334 0.03774608 -0.004084532 0.088427246
0003f0 94 a1 65 3d bf ba 8e 3d 7a de 81 3d 5d 2e 98 3d
       0.056062296 0.06969213 0.06341262 0.07430718

network.2.bias f4 [32]
000000 72 5b 42 bc 7f e7 85 3d bc 54 1f 3e 23 07 9f 3c
       -0.011862623 0.06538295 0.15559667 0.019412583
000010 91 e4 6f 3d 51 e4 35 3d 85 84 10 3e 21 68 35 bd
       0.058567587 0.044407193 0.14113052 -0.04428876
000020 27 9f de bc f4 27 a8 bd 60 e3 81 bd ec 32 86 bd
       -0.0271755 -0.082107455 -0.063421965 -0.06552681
000030 39 9b a4 bc c2 81 35 3e bc 4c 6a bc 59 a5 9c 3d
       -0.020093547 0.1772528 -0.014300521 0.07648725
000040 e4 8a 93 bd 88 30 63 3d 9a 47 89 bd f6 30 2d 3e
       -0.07204226 0.055466205 -0.0670311 0.16913208
000050 f0 ce c9 3c 7e 75 a5 3b 18 e5 c6 3d 6f 0d 20 3e
       0.024634808 0.0050494066 0.09711665 0.15630125
000060 8b ff 97 3c 25 b0 b6 3d 38 ab 8a 3b 60 e8 b0 3d
       0.01855447 0.08920316 0.0042318366 0.08638072
000070 60 c9 99 3d 0f 0d 45 bd 7c ef e0 3d 4d 89 01 3e
       0.07509112 -0.048108157 0.10983178 0.12650032

network.4.weight f4 [16, 32]
000000 6d 6f 86 3d 6b b8 f8 3d 17 20 cb bd 82 0c b2 bd
       0.065642215 0.1214455 -0.0991823 -0.08693792
000010 07 b4 be 3d 5c 05 04 3d df 5f 8d bd cf d6 0e be
       0.09311681 0.032231674 -0.069030516 -0.1394913
000020 40 55 a9 bd b3 f5 2e 3e 4b 06 0c bd b1 fa 4f 3d
       -0.08268213 0.17085914 -0.03418569 0.050776187
000030 f7 f2 cc 3c 16 f3 93 bc df 46 e1 3d c4 c7 02 3e
       0.025018198 -0.018060248 0.10999846 0.12771517
000040 61 e9 74 3d e3 52 c6 3c 61 3f 31 3e 3a 00 24 3e
       0.05979288 0.024209445 0.17309333 0.16015711
000050 9a a2 73 bd 64 d2 05 bd 03 b2 d5 bd 7b 66 3a 3e
       -0.05948124 -0.032671347 -0.10434344 0.18203156
000060 61 91 d2 3c df 32 23 3e 73 20 9a bd 56 f3 9b bd
       0.025704088 0.15937375 -0.075257204 -0.07614772
000070 43 d8 c8 bd a8 5e 15 bc a6 06 1d 3e 6d 2a 64 3e
       -0.09806874 -0.009116806 0.15334567 0.22281809
000080 65 18 8b 3d 26 64 ef 3d 09 ad dc 3d 04 0f e5 bd
       0.06791762 0.11689024 0.10775191 -0.11184505
000090 d3 39 d7 bd 79 8b 14 bd 00 12 b9 bd 42 f5 11 be
       -0.10509076 -0.036265824 -0.09036636 -0.14253715
0000a0 96 53 20 3e db 82 e8 3d f6 0e ac 3d 8f 04 3c bd
       0.15656886 0.11353084 0.08401291 -0.045902785
0000b0 22 21 30 be 8d 68 31 3e d2 76 b4 ba 6e 3e de 3d
       -0.17200139 0.17325039 -0.0013768321 0.10851751
0000c0 0b cf 88 bc a2 63 30 be de 40 23 be 06 06 00 be
       -0.016700288 -0.17225507 -0.15942714 -0.12502298
0000d0 b8 6f ba bd 7e d5 a6 bd b9 0e f5 bd 2b 1d df bc
       -0.0910334 -0.08146189 -0.11965699 -0.027235588
0000e0 f1 c1 01 be a9 d7 9b bd cc 71 3e bd c5 a1 b1 bd
       -0.12671639 -0.07609493 -0.046495244 -0.08673433
0000f0 22 5d 21 3e 1f 4d 07 be 88 9f 86 bd 3f 28 2a be
       0.15758184 -0.13213013 -0.06573397 -0.16616915
000100 ec a5 b2 bd ec 02 e8 bd 4e 55 35 3d 7b 93 d9 bc
       -0.08723053 -0.11328682 0.044270806 -0.026559582
000110 4d dd cd 3d 5e ce 00 3e 76 36 da 3d d2 3c 06 3e
       0.100519754 0.12578723 0.10654919 0.13109139
000120 18 4b f2 ba 5c b7 0b bd 86 9f 8b 3d 96 f8 3f be
       -0.0018485514 -0.034110412 0.06817536 -0.18747172
000130 00 d6 d3 bd 1b fd 1c bd b7 43 0c bc a0 f6 a5 bd
       -0.10343552 -0.038327318 -0.008561066 -0.081036806
000140 9d 47 98 3d 8c 89 ab bb b7 63 c4 3c f2 59 02 3e
       0.07435534 -0.0052349027 0.023973329 0.12729624
000150 91 54 91 3d 62 76 39 be 7b 56 79 bd 56 fd e2 3d
       0.07096208 -0.18111566 -0.06087349 0.11083476
000160 43 6a 34 be 58 4c f6 3c 80 86 9c bd c0 51 0f be
       -0.1761866 0.0300657 -0.07642841 -0.13996029
000170 94 ea 3c be 14 8d 8f bd 87 a9 81 bd 50 e7 b7 bc
       -0.1844886 -0.070093304 -0.06331163 -0.022449166
000180 d0 32 a4 bd f1 26 03 3e ec eb a2 bd 4a 9c 94 3c
       -0.08017504 0.12807824 -0.07955155 0.01814093
000190 5c 79 95 3d 1d 33 1e 3e 84 e7 3a 3e b4 aa 82 3d
       0.07298538 0.15449186 0.18252379 0.06380215
0001a0 22 65 32 3e f3 18 0f 3e 92 ba 59 3d 5d e3 88 bd
       0.17421392 0.13974361 0.053156443 -0.06683991
0001b0 bc 0f 93 3d be a2 cb bc 25 b9 2b 3d a1 36 01 3e
       0.071807355 -0.024857875 0.041924614 0.12618496
0001c0 39 50 86 bd 45 cd dc bc a9 14 6b bc 30 ba d2 bc
       -0.0655827 -0.026953349 -0.0143481875 -0.025723547
0001d0 f6 da 2c bc 1d 2a 12 3d 83 1b fe 3d ef b6 86 3e
       -0.010550251 0.035684694 0.12407591 0.26311442
0001e0 30 29 82 3e 05 f4 68 3e 3c 30 04 3e f2 da e0 3c
       0.2542205 0.22749336 0.12909025 0.027448151
0001f0 ed 6a 89 bc d2 ac 6e 3d 0b 9a 67 3e 76 6e 6e 3e
       -0.016774619 0.058270283 0.22617356 0.23284325
000200 51 ad ee bc 9e 46 56 3e 0e 29 d8 3d 84 6c 84 3e
       -0.029135378 0.20925376 0.105547056 0.2586404
000210 f6 b2 59 3e 2c 35 30 3d 28 36 8b 3d 5b 24 8f bd
       0.21259674 0.04301946 0.06797439 -0.06989356
000220 03 27 44 3d b0 69 b1 bc 36 74 eb 3d 47 28 60 bc
       0.047888767 -0.021656841 0.11496775 -0.013681478
000230 35 8a 53 3e 3c 2f 76 3e 80 2a 4b bd 1e c2 63 3e
       0.2065819 0.24041456 -0.049601078 0.22242019
000240 72 0a 86 bc fb 0a 05 3e 8d 71 1c 3e d2 e0 46 3e
       -0.016362403 0.1299247 0.15277691 0.194217
000250 a0 bf 33 3e 58 4d ed bc 2d af 6d bb 1f 54 54 3e
       0.17553568 -0.028967544 -0.0036267743 0.20735215
000260 f7 61 0c 3e 86 56 e1 bc cf b8 33 3e 82 2d 61 3d
       0.13709246 -0.027507078 0.17550968 0.05497504
000270 09 9d 24 be 3f 4a 4e bd 2c cd 56 3e 11 c1 ff 3d
       -0.16075529 -0.050363775 0.20976704 0.12487996
000280 91 35 19 3e 33 1a 58 3e 6f 97 52 3d ef fb 15 3e
       0.1496184 0.21103744 0.05141395 0.14646886
000290 71 65 b8 3b 45 4b 24 3e 33 a9 b1 3d 72 bc 31 3d
       0.005627327 0.16044338 0.0867485 0.043392606
0002a0 61 5e 1f 3e ba 25 fd 3d 67 38 a8 bc 7b 1c ee bc
       0.15563346 0.123607114 -0.020534707 -0.029066315
0002b0 31 e9 35 bd b5 46 23 3e 26 1b 4e 3e e2 3a 7d bd
       -0.04441184 0.15944941 0.20127544 -0.061823733
0002c0 be 92 e3 bd ac 1c 63 3e 0b ba e0 bd 3e 32 6e 3e
       -0.11111973 0.22178906 -0.10972985 0.23261353
0002d0 c6 d2 9d 3d 7b 80 e9 bd 60 eb 3d 3e 34 1d 14 bc
       0.077062175 -0.11401459 0.1854682 -0.009040166
0002e0 6c 5e 0a bd df 62 30 3e 04 f9 ef 3d c8 16 24 bc
       -0.033781454 0.17225216 0.11717418 -0.010015197
0002f0 10 55 16 be af ca 9e bd dc 54 4c 3e 2c f8 65 3c
       -0.14680886 -0.077535026 0.19954246 0.01403622
000300 15 16 12 be 64 9e d7 3d 39 25 11 bd 72 4a a2 bd
       -0.14266236 0.105282575 -0.03543589 -0.079243556
000310 55 16 18 be 04 8c 31 be d3 64 7d 3c a3 33 60 bd
       -0.14852269 -0.17338568 0.015465933 -0.054736745
000320 5f 9d 3a 3c 9b ec 0d 3d 6a 0c 21 be 29 e2 08 be
       0.011390059 0.034649473 -0.15727392 -0.13367523
000330 d3 ef 8c 3d 51 9a 17 3e 42 8f b2 3d 26 0e 11 be
       0.0688168 0.14804961 0.087187305 -0.14165553
000340 06 54 cc 3d a3 c3 e1 3c ba bc 34 3e 54 a0 5c 3c
       0.09976964 0.027559107 0.17650118 0.01346596
000350 81 ab d9 bd 6d de 18 3d 4a 9f 11 3d 7b df 80 bd
       -0.10628415 0.037321497 0.0355523 -0.062926255
000360 9e eb a9 bd 2c 7f 1a 3e 78 c0 45 bd ee 32 23 be
       -0.082968935 0.15087575 -0.048279256 -0.15937397
000370 e8 80 d4 3b 9a af a5 bd e9 64 2a bd 0b 27 64 bd
       0.0064850934 -0.08090134 -0.04160014 -0.055701297
000380 2a c6 11 3e b4 44 a0 bd 45 34 28 3e 95 e6 21 3e
       0.1423575 -0.07825604 0.16426189 0.15810616
000390 87 5d 5b 3d 7c 5a 93 3d 43 48 5a 3e 39 26 0f 3e
       0.05355599 0.07194993 0.21316628 0.13979425
0003a0 33 b7 d4 3c fb ac ef 3d f8 b2 45 3d 25 de c2 3d
       0.025966262 0.11702915 0.04826638 0.09515027
0003b0 dc 5a 45 3e a9 cf f9 3d 34 66 18 3d 93 6e 67 3d
       0.19272941 0.12197811 0.037206843 0.056501936
0003c0 a0 3b 44 3d 32 c6 ef bc 2c fc 1a 3d 10 bc 70 bd
       0.047908425 -0.029269312 0.037838146 -0.0587731
0003d0 7d 83 c7 3e 41 da 87 bc 8a 26 7b 3e d8 04 75 3e
       0.38967505 -0.016583564 0.2452642 0.23927629
0003e0 fc f5 81 bd ae 71 80 3e 52 37 a7 3c d0 04 d8 bd
       -0.06345746 0.2508673 0.020412121 -0.10547793
0003f0 fa f8 0d 3e f2 79 88 3d e3 3a 97 3d 6d 78 63 3e
       0.13864508 0.06663884 0.073842786 0.22213908

network.4.bias f4 [16]
000000 90 45 c0 bd 35 df 11 be de 39 e2 bb 75 5a 92 3d
       -0.09388268 -0.14245303 -0.006903871 0.071461596
000010 80 8a b9 bd 36 3d d6 3d a0 2d f5 bd 75 5c 4d bd
       -0.0905962 0.10460894 -0.11971593 -0.050137002
000020 45 cf 12 be db 22 90 3d a2 a3 8e 3c 4a 68 9d bd
       -0.1433688 0.07037898 0.01741201 -0.07685907
000030 91 df 6a 3e ff 91 93 bc b8 3a 83 bc 20 77 24 be
       0.22936846 -0.018013952 -0.01601921 -0.16061068

network.6.weight f4 [100, 16]
000000 fb 98 a8 bc 58 b1 0f bd 94 4e 05 3e b1 a1 53 3d
       -0.02058076 -0.035081238 0.13018256 0.051667873
000010 53 45 ee 3d 36 b9 81 3d 68 11 34 3d e3 4a f1 3d
       0.11634316 0.06334154 0.043961912 0.11781862
000020 4c 9b ff bd dd fd 02 3e 9f 49 eb 3b 6c 18 3c 3e
       -0.124807924 0.12792154 0.007180407 0.18368691
000030 86 06 89 3b 3c 6c 8e 3e 51 4e 20 be 9d 56 3c bd
       0.004181686 0.2781695 -0.15654875 -0.04598104
000040 93 2d e3 3c d8 c5 65 be 4f ca 9c bd 2f 9b d6 bd
       0.027731692 -0.22438753 -0.07655775 -0.10478818
000050 f9 04 70 bd 55 f4 e5 3d f0 de 7f 3e 95 f1 f1 3d
       -0.058598492 0.11228243 0.24987388 0.11813656
000060 fe 48 c0 3e 6a eb 2a bd aa 56 f8 3d c3 05 26 bb
       0.3755569 -0.041728415 0.12125905 -0.0025333024
000070 71 d2 9f 3e c1 fb 6d 3e ba a8 e8 bd 93 c2 1d 3c
       0.31215242 0.23240568 -0.11360307 0.00962891
000080 08 c0 35 3e 3e 9e 59 be ad 2f f6 3d bd 20 d3 bd
       0.17749035 -0.21251771 0.12020812 -0.10308979
000090 0d 9f 17 be f4 39 27 bc 96 b9 24 3e 6f 72 5e be
       -0.14806767 -0.010206688 0.1608642 -0.2172334
0000a0 24 2c 6d be a3 9c 98 be c7 4d 54 bd 57 6d 97 be
       -0.2316137 -0.29807004 -0.051831987 -0.29575607
0000b0 9f 50 7e 3d 65 cd fd bd a0 d4 2c 3e cd e5 7b be
       0.062088605 -0.123926915 0.16877985 -0.24599381
0000c0 e0 54 38 3d ce 15 15 be a1 4a c1 bc 98 6c ac 3d
       0.045002818 -0.14559099 -0.023595156 0.0841915
0000d0 a5 4b 36 be cd 9d 8b bd 40 8a 35 3d 69 b4 cb bc
       -0.17802294 -0.068172075 0.0443213 -0.0248663
0000e0 e8 d7 24 bd 74 83 eb bd ee 34 9b 3d fd e5 79 bb
       -0.040244967 -0.11499682 0.07578455 -0.0038131468
0000f0 31 5d fe bb dd 04 9b be 50 95 9a bc 52 23 36 3e
       -0.007762574 -0.30277148 -0.018870026 0.17786911
000100 eb 7d 34 be 78 b6 2d bd 8f a8 60 3e a8 78 94 3d
       -0.17626159 -0.042410344 0.219393 0.07249576
000110 50 ab 9a be 92 55 93 be f8 20 23 be 82 cc 47 be
       -0.30208826 -0.28776222 -0.15930545 -0.19511607
000120 59 c4 28 3e dc 4a aa bd 41 4d 99 3d b6 ac 7c be
       0.1648115 -0.083150595 0.07485438 -0.24675259
000130 ba 2b 7f be dd a3 2d be 33 67 0a 3e 49 05 e1 3d
       -0.24919024 -0.1695704 0.1351593 0.10987336
000140 a1 a0 d3 3d f0 6a 7c be 06 b3 9f 3d eb 09 9f be
       0.10333372 -0.24650168 0.07797818 -0.31062254
000150 cb 1a 1a be c1 2f d5 3d 72 92 76 be 5e 5f 11 be
       -0.15049283 0.10409499 -0.24079302 -0.14196536
000160 6a cb 72 3c f1 06 a4 be 69 4a c4 3c df f9 48 be
       0.0148190055 -0.32036546 0.023961263 -0.19626568
000170 d0 7a 43 be a5 d8 ea bd 74 f1 17 bd ba 16 37 3e
       -0.19089818 -0.11467103 -0.037095502 0.17879763
000180 e5 43 b2 bc 90 e3 3d 3d dc 11 3c 3c 46 35 9f be
       -0.02176089 0.0463596 0.011478867 -0.31095332
000190 0e 6c d1 3d 27 75 79 be d0 bb 39 be 5e c8 9a bc
       0.10225688 -0.24361096 -0.18138051 -0.01889437
0001a0 9a 16 98 be a5 3e 4b be c1 4e 8a 3d 0f b0 a9 3d
       -0.29704744 -0.19848116 0.06753302 0.08285534
0001b0 ab b7 9d bd 65 53 96 be 3f 49 82 bd 6a 57 85 3d
       -0.077010475 -0.293605 -0.06361627 0.065108135
0001c0 b0 7b 8d be be 46 75 3e a1 93 db 3d d4 42 23 be
       -0.2763343 0.23952767 0.10721517 -0.15943462
0001d0 7f be 76 be 64 4e 24 bd 58 ba 48 3d 63 3b a9 bd
       -0.24096106 -0.04011382 0.049005836 -0.0826328
0001e0 e5 94 83 be f3 5e 64 be 01 03 1b bc 1e ec 8e be
       -0.25699535 -0.22301845 -0.009461165 -0.27914518
0001f0 30 18 e9 3c d8 f9 b3 bd 50 30 35 3e 25 6a 07 be
       0.028453916 -0.08787888 0.17694211 -0.13224085
000200 4c f0 9f be 3c bb c8 3d 31 51 09 be ea db 9d be
       -0.3123802 0.09801337 -0.13409878 -0.30831844
000210 7f 30 a7 bd e4 6b 08 3c 18 39 c3 bd 5a d0 1b be
       -0.08163547 0.008326504 -0.09532374 -0.15216199
000220 b6 49 c7 bd 47 82 a7 3d ed 90 14 3e 99 3b 83 be
       -0.09730856 0.08179145 0.1450841 -0.25631407
000230 1b 90 45 bd 48 05 a8 be 75 81 a4 3d 59 57 35 be
       -0.048233133 -0.3281653 0.080325045 -0.17709102
000240 a4 19 0f be 60 5f f0 bd 52 2c 03 3e 27 41 0c 3e
       -0.13974625 -0.11736941 0.12809876 0.13696729
000250 b7 5c 76 be 19 2d 93 be 48 1a be bd 3a 72 3d be
       -0.24058805 -0.28745344 -0.092823565 -0.18500605
000260 2c 90 54 be e3 42 8a bd ab 34 03 3e a4 d8 9e bd
       -0.20758122 -0.06751039 0.1281306 -0.07756165
000270 78 6b 9c be b9 52 12 be 40 cf fa 3d 1e 55 13 be
       -0.30550742 -0.14289369 0.12246561 -0.14387938
000280 87 0e 65 bd 58 60 e0 bd 60 8a 0d be af 76 88 bb
       -0.055922057 -0.10955876 -0.13822317 -0.004164539
000290 d4 27 88 be 6a 0b d7 3c c8 67 88 3d cc cb f4 bd
       -0.26592886 0.02625056 0.0666042 -0.11952934
0002a0 2c 4b 89 3d 4c be 4d 3d 5b 4a 2f be f1 8f 46 3d
       0.06703791 0.05023031 -0.17118208 0.048477117
0002b0 df 66 76 be 9e ff 91 be 1c e8 22 be 9e 7f 1b be
       -0.2406268 -0.28515333 -0.15908855 -0.15185401
0002c0 37 62 8f be d0 2a fb bc 27 9c ac bd 5c e1 62 be
       -0.2800462 -0.030660063 -0.08428221 -0.2215628
0002d0 f8 f5 f6 bd 76 f2 77 3d 3c 4a 15 3e 08 c4 9b bd
       -0.120586336 0.060533963 0.145791 -0.07605749
0002e0 d4 4e 98 be 92 7b 45 3d eb 9c 03 3e 11 4a d8 bd
       -0.2974764 0.04821355 0.12852828 -0.10561002
0002f0 e6 bd eb bd e9 37 91 be ed 2b 2f 3e c2 69 51 3e
       -0.1151083 -0.2836297 0.171066 0.204505
000300 78 50 88 bd 40 2b cb bb d3 a8 24 bc ac eb 39 bd
       -0.06655973 -0.006200224 -0.010050016 -0.04539077
000310 c4 c6 8d 3d bb dd 31 bd 04 24 a7 bd 4a f8 9c 3d
       0.06922677 -0.04342435 -0.08161166 0.07664545
000320 1f b3 6d bd ff 81 90 be d4 45 f3 bd a4 e0 a4 be
       -0.05803215 -0.2822418 -0.11878553 -0.32202637
000330 66 c5 dc 3d f6 1c a5 be 32 9c 9a 3d 76 7b 02 3e
       0.10779838 -0.32248658 0.07549323 0.12742409
000340 52 f1 b5 3d 90 c4 b5 3c 02 33 61 3e 55 e0 91 be
       0.08883919 0.022188455 0.21992114 -0.28491464
000350 f4 55 f4 bd 23 4f dd 3d c8 65 3d 3e 4e a4 c5 3d
       -0.11930457 0.1080611 0.18495858 0.09650479
000360 b3 71 07 bc 82 76 af bc 66 5c 87 be 0e 4e a4 3d
       -0.008266854 -0.021418814 -0.26437682 0.080227
000370 bc 67 9e be ee 7f 88 be 6f 2d 20 3c 22 95 f5 3d
       -0.30938518 -0.26660103 0.009776457 0.119913355
000380 a7 28 35 be 04 bd 22 be 9b 0d 1d 3e 43 a8 03 bd
       -0.17691289 -0.15892416 0.15337221 -0.03214289
000390 09 a7 c6 3d b8 f8 86 bd 70 8a 21 bd 1d b1 e9 bb
       0.09699828 -0.06590408 -0.039438665 -0.0071317093
0003a0 ec 51 b1 3c f4 78 9f be c4 12 da 3d 0b f6 e4 bd
       0.021645509 -0.31146967 0.106481105 -0.111797415
0003b0 66 92 8b be 13 c7 8b be d9 e2 7d be c8 c4 1f be
       -0.2726013 -0.2730032 -0.24793567 -0.1560241
0003c0 ef 9e 83 be f8 b9 f1 3d 65 e7 33 be ce 17 7f be
       -0.25707194 0.11803049 -0.17568739 -0.24911425
0003d0 65 83 d7 3d 46 d2 ad bd 14 81 7e be a2 09 09 3d
       0.105231084 -0.08487372 -0.24853927 0.033456452
0003e0 90 98 74 be 5e 05 b5 3d d6 d0 76 bd 87 96 e4 bd
       -0.23886323 0.08838914 -0.060257755 -0.11161523
0003f0 1a a6 6e be 6c 81 bc be 99 9c 2e be 16 52 09 be
       -0.2330555 -0.3681749 -0.17051925 -0.1341022

network.6.bias f4 [100]
000000 15 d3 11 be 4a 81 ec bd 3a 94 29 3d c3 29 dc 3d
       -0.14240678 -0.115480974 0.041401125 0.10750153
000010 0a 7f 0f 3e ba b5 d7 bb c9 58 f0 3c 02 31 54 be
       0.14013305 -0.006582943 0.029339211 -0.2072182
000020 4d 9b 82 be cf ea 1d 3d 9c 46 b8 3d 75 6a 45 be
       -0.2550911 0.03855401 0.08997843 -0.19278891
000030 1d f7 86 3c f3 33 2f be cd 5d 4a be af 53 fb bd
       0.016475255 -0.17109661 -0.19762345 -0.12271821
000040 26 6e d6 bd c6 4b e4 bc 50 7b 12 be bf 86 88 bd
       -0.10470228 -0.027868163 -0.14304852 -0.06666326
000050 dc 92 58 be 93 03 16 3e 66 31 f8 3d 19 c3 34 3e
       -0.21149772 0.14649801 0.12118797 0.17652549
000060 77 c3 16 be 06 8c 2c 3d a1 da 77 bd e1 9b ad b9
       -0.14723001 0.042125724 -0.060511235 -0.0003311327
000070 aa b4 a1 bd 63 a9 60 3d 1b de e4 bd 9a 4c 0e bc
       -0.07895787 0.05484904 -0.11175176 -0.008685255
000080 41 c1 87 bc f4 34 02 3e d9 77 3d 3e 4b f7 8d be
       -0.016571643 0.12715513 0.1850275 -0.27727732
000090 3c 1c 2d 3e c3 dd 30 3e 83 aa ae 3d bb 5b 2d be
       0.16905302 0.17272095 0.08528616 -0.16929524
0000a0 7b 33 03 be da d5 0f 3b 22 15 1f 3e d0 da 90 be
       -0.12812607 0.0021947534 0.15535405 -0.2829194
0000b0 04 53 05 3e d7 0e e1 bd 67 3a 0f 3e 33 38 8c be
       0.13019949 -0.109891586 0.13987122 -0.27386627
0000c0 db 2c 81 be f4 9e 3c 3d 57 5e 9c be c1 75 49 be
       -0.25229535 0.046050027 -0.30540726 -0.19673826
0000d0 7e 92 9e 3d f8 52 2d be 6e 78 1a bd e7 bd cf bd
       0.07742785 -0.16926181 -0.037712507 -0.10143643
0000e0 08 4d 6d 3d a5 23 97 3d 0f f3 07 3e f8 26 7c be
       0.05793479 0.073798455 0.13276313 -0.2462424
0000f0 31 67 6f bd 29 44 cc 3c d8 50 3e be 20 2e cb 3d
       -0.05844802 0.024934845 -0.18585527 0.09920907
000100 f1 96 87 3d 6e 91 3d be ab 78 9a 3d 25 dc 0b be
       0.06620587 -0.18512508 0.07542547 -0.13658197
000110 7a 4b 06 3e a2 6f 50 be be d3 17 3d 70 7f 78 be
       0.1311473 -0.20355085 0.037067167 -0.24267364
000120 41 5f af 3d f9 ab c8 3d b5 6c cd 3d 00 cb fc 3d
       0.0856309 0.09798426 0.100305 0.12343407
000130 cb 4d c1 3d 4b 2a 76 3c 42 4f 2b 3e f8 63 62 be
       0.09438666 0.015024732 0.16729453 -0.22108448
000140 dc 84 51 be 21 67 09 3d df a7 09 be 93 b5 83 3d
       -0.20460838 0.033545617 -0.13442944 0.06431117
000150 61 9c b2 3d 21 2e 70 3d b4 e0 b0 3d 97 2b 31 bd
       0.08721233 0.058637742 0.08636609 -0.04325446
000160 09 3c 8d be b3 04 ed 3d 1d 23 ec bc 96 2c 9c bd
       -0.27584866 0.11573162 -0.028825337 -0.076256916
000170 f0 f1 33 be 18 38 16 3e ef a3 47 be be 26 9e bc
       -0.1757276 0.14669836 -0.1949613 -0.019305583
000180 c6 dc 97 3d cf 4d d0 3d cf a1 00 3e e1 47 a4 bd
       0.07415156 0.10171091 0.12561725 -0.08021522
